models/student_tx.pt (torch, 44089 bytes, 5 tensors)

net.0.weight f4 [128, 14]
000000 39 b6 42 3e f7 a5 63 3e a0 da 71 be 53 23 b1 3d
       0.19014825 0.2223128 -0.23618555 0.08649316
000010 6a ac 98 bd 45 04 83 3e e4 75 19 3e b0 55 e6 3c
       -0.074547604 0.25589195 0.14986378 0.02811703
000020 de ef 86 bd dc a2 7d be 64 0e 2f 3e 40 e1 d5 bb
       -0.0658872 -0.24769157 0.17095333 -0.006527096
000030 ee 8d 62 3e 80 8e 04 3c b8 db 1a be e2 4b 81 3e
       0.22124454 0.008090615 -0.15122879 0.25253206
000040 41 23 84 bd 0d f7 ac bc 07 2f 4e bd 0a c1 35 be
       -0.06452037 -0.021113897 -0.050337818 -0.1774942
000050 b4 39 21 be aa 8d 30 3e 58 35 a4 3d 8a 03 7a 3e
       -0.15744668 0.1724154 0.08017987 0.24415413
000060 86 f4 ae bd d2 53 1f 3e 46 1d a0 bd da 4c 73 3e
       -0.08542733 0.15559319 -0.078180835 0.23759785
000070 60 ca 2f 3e cc a2 c9 3d 2f c3 81 3e 9f 6a 10 be
       0.17167044 0.09845504 0.25344226 -0.14103173
000080 80 b7 5e be 40 4d 0c 3d 64 ab f9 3d 20 f5 5a bc
       -0.21749687 0.03425336 0.12190893 -0.013364106
000090 71 b1 43 be 30 1e b5 3d e0 44 b8 bc a4 39 8a bd
       -0.19110657 0.088436484 -0.02249378 -0.06749275
0000a0 c8 0b fb bc ec eb 89 3d 4c 50 eb bd 68 46 9b 3d
       -0.030645266 0.06734452 -0.11489925 0.07581788
0000b0 78 de d9 3d e5 1f 75 be 22 d0 0a be 4c be 9c 3d
       0.10638136 -0.23937948 -0.13555959 0.07653484
0000c0 12 60 7a be 3e b2 03 3e c8 2b 74 3d e8 5d 60 be
       -0.2445071 0.12860963 0.059612066 -0.21910822
0000d0 81 48 80 3e 96 34 93 bd da 90 de bd 64 70 ae 3d
       0.25055316 -0.07187764 -0.10867472 0.085175306
0000e0 90 2a 75 3d f8 89 e1 bd 40 92 b7 3d 9e 90 33 3e
       0.059855044 -0.110126436 0.08963442 0.17535636
0000f0 28 88 65 be 14 74 29 3e 38 27 b9 3d 34 c1 9b bd
       -0.2241522 0.16548187 0.090406835 -0.0760521
000100 a4 a9 97 bd a0 12 cc bd 28 77 39 3e 00 a3 1b 3c
       -0.07405403 -0.0996449 0.18111861 0.009499311
000110 17 12 83 3e 03 94 82 be 2b 1a 36 be 0a 00 66 3e
       0.2559974 -0.2550355 -0.1778342 0.22460952
000120 e8 70 d2 3d 21 2b 00 be a1 99 54 be 4a 39 77 3e
       0.102754414 -0.12516452 -0.2076173 0.24142948
000130 e0 f1 bd 3d fe 1f 49 be f4 63 75 be 50 53 46 3d
       0.092746496 -0.1964111 -0.2396391 0.048419297
000140 a8 b2 67 3d 4a ff 6c be 3a 47 d3 bd e4 8b 90 bd
       0.056566864 -0.2314426 -0.1031632 -0.07057932
000150 70 ad d9 3d 58 e5 58 be 10 30 af 3d 08 7a ff bd
       0.10628784 -0.21181238 0.08554089 -0.124744475
000160 7c 20 1d bd b0 ad 96 3c da a7 3c be 15 4a 15 be
       -0.038361058 0.018393368 -0.18423405 -0.14579041
000170 8a b0 52 be 06 2b 89 bd dc e5 f0 3d df 23 09 be
       -0.20575157 -0.06697659 0.11762592 -0.1339259
000180 18 ef 5c 3d b0 cf 7f bd 25 b9 b6 bd 5a f9 29 be
       0.053938955 -0.062453926 -0.08922032 -0.16599026
000190 1b 9c 75 3e 59 68 ab 3c c7 ce ec 3d 54 3c ee 3d
       0.23985331 0.02092378 0.11562877 0.116326004
0001a0 c0 b6 7a bd 14 5a 90 bd 53 e5 7d be e4 5e f8 3d
       -0.06120944 -0.07048431 -0.24794511 0.12127474
0001b0 b2 be 73 3e ca 0f 1e 3e 22 30 84 be a0 69 b9 3d
       0.23803213 0.1543571 -0.25817972 0.090533495
0001c0 65 c3 36 3d 38 74 02 be e4 00 37 be 86 36 ab bd
       0.044619936 -0.12739646 -0.17871433 -0.08360009
0001d0 72 97 5c 3e 4a 03 63 be 52 c3 42 be 7e 35 71 3e
       0.21542147 -0.22169223 -0.19019821 0.23555562
0001e0 26 56 12 3e c0 e0 32 bc 92 af 32 3e 64 6e e3 3d
       0.14290676 -0.010917842 0.17449787 0.1110504
0001f0 ea 66 aa bd 00 95 5a bb e9 a1 26 3e 48 23 14 3e
       -0.083204105 -0.003335297 0.16272701 0.14466584
000200 32 70 cf 3d 20 af 89 be c6 80 8a 3c a0 b1 c2 3d
       0.101288214 -0.26891422 0.016907107 0.095065355
000210 be 86 39 be 1c 26 86 be 37 57 0e be 06 29 24 3e
       -0.18117806 -0.2620095 -0.13900457 0.16031274
000220 00 1c 7e 3d 46 4e 49 3e 9a c7 5c 3e 60 d0 2a bd
       0.06203842 0.19658765 0.21560517 -0.041702628
000230 89 63 37 3d 6d 35 9f 3d 3a 09 04 3d a6 ac 66 3c
       0.04477266 0.07773862 0.03223536 0.0140792485
000240 a4 83 2f 3e bc 68 41 3e cc fb 80 be 60 0d 97 3d
       0.1714006 0.18887609 -0.25192106 0.07375598
000250 a2 02 ed bd e4 0e 88 bd d6 0f 00 3e 3e 19 7a 3e
       -0.11572768 -0.06643465 0.12506041 0.24423692
000260 d8 c9 48 3d de 9b 7b 3e 30 0f 69 3d c5 31 44 be
       0.04902062 0.24571177 0.05689925 -0.1915961
000270 1b b3 b5 3d a5 06 e1 bd 5c a2 13 bd 40 88 db 3c
       0.08872052 -0.109875955 -0.03604351 0.026798368
000280 3d 01 02 be 38 95 63 be 00 7c 81 3d a4 10 4a bd
       -0.12695785 -0.22224891 0.06322479 -0.049332276
000290 d0 93 e5 bd 68 7f bd bd 7a 7a 11 3e a0 b7 60 bc
       -0.112098336 -0.092528164 0.14206877 -0.013715655
0002a0 f5 05 57 bc 18 8f 0e 3e 00 fa 48 3e c3 88 59 3e
       -0.013123979 0.13921773 0.19626617 0.21243577
0002b0 19 dd 84 3e 60 9c f3 3d db c8 5e be 30 ec ae bd
       0.25949934 0.118950605 -0.21756308 -0.08541143
0002c0 a4 37 f6 bd 34 79 df bd 90 2d 49 3e 00 7a 3e 3e
       -0.12022331 -0.109117895 0.19646287 0.18601227
0002d0 96 69 ce bd b0 88 a2 3d 9e a8 00 3e 74 80 6a 3e
       -0.10078733 0.07936227 0.12564322 0.22900563
0002e0 96 b6 43 be 34 83 37 be 64 f0 5d be dd 8e 86 3e
       -0.1911262 -0.17921144 -0.21673733 0.2628087
0002f0 fd 98 46 be 40 82 0a bc 3c 31 81 be 30 6f 84 bc
       -0.19394298 -0.008453906 -0.25232875 -0.0161663
000300 60 53 2a 3c f8 62 ee bd 6c 9e 24 bd a3 76 0f be
       0.010395855 -0.116399705 -0.040190145 -0.140101
000310 48 f0 80 be 50 e9 63 3e 47 a7 00 be ad 49 5c be
       -0.2518332 0.2225697 -0.12563811 -0.2151248
000320 1e fb 5f be c0 41 2d 3c 40 46 93 bb c0 12 c5 3c
       -0.21873137 0.010574758 -0.0044944584 0.024056792
000330 b0 be 5b bd 3e 97 84 be 20 70 4e 3d 5c f2 a4 bd
       -0.05364865 -0.2589664 0.0503999 -0.08054039
000340 02 48 32 3e 60 87 eb bd 9f cb 90 bd 86 3c 7c 3e
       0.17410281 -0.1150043 -0.07070088 0.24632463
000350 77 89 a4 3d 53 5e 5c 3e 8a 68 0a 3e 1b 7e 04 be
       0.08034032 0.21520357 0.13516441 -0.1293873
000360 22 78 01 3e 18 97 16 3d cc 59 d6 bd d0 97 76 be
       0.12643483 0.036765188 -0.10466346 -0.2408135
000370 b8 ad 4a be ec 04 de 3d f8 10 55 3e 64 e8 38 be
       -0.19792831 0.108407825 0.20807254 -0.180574
000380 a5 fd b9 bc db b8 ea 3d 96 cf 4b be f7 58 15 be
       -0.022703955 0.1146104 -0.19903407 -0.14584719
000390 4d 35 1b 3e c7 f4 12 be 60 46 68 be 9c 17 a7 bd
       0.15157051 -0.14351188 -0.22683096 -0.081588
0003a0 f2 b7 98 bd 58 66 ba bc 2a 36 60 3e 20 ee 03 3d
       -0.0745696 -0.02275388 0.21895662 0.032209516
0003b0 e6 fa 1c 3e 84 4f ef 3d 08 18 3e 3e 60 3d e6 3d
       0.15330085 0.11685088 0.18563855 0.11242175
0003c0 c8 62 e7 bc ae 95 a9 bd d6 b5 9e bd 70 0a 87 3d
       -0.028245345 -0.08280502 -0.07749526 0.06593788
0003d0 8c 14 b6 3d 20 37 61 bc 40 0c 30 3c 65 32 5e be
       0.08890638 -0.013746053 0.010745108 -0.21698911
0003e0 8b 32 06 be 8a 36 56 3e 7c bd 3a be 8b 52 85 3e
       -0.13105218 0.20919243 -0.18236345 0.26039538
0003f0 bc 51 41 3e a1 32 ce bb fa 67 fb 3b 54 b7 5e 3e
       0.18878835 -0.0062926565 0.007672307 0.21749622

net.0.bias f4 [128]
000000 2d 47 45 3e 30 67 a3 bd 3c 00 15 3e fc ae 9d bd
       0.19265433 -0.07978666 0.1455087 -0.07699391
000010 b1 0c 7a 3e 39 be 64 be 72 41 24 be ca ff 54 3e
       0.24418904 -0.22338189 -0.1604059 0.20800701
000020 ef bf 7c be 75 ca 56 be 37 e7 ed bc 3d 3e 11 bd
       -0.24682592 -0.20975669 -0.029040916 -0.035459746
000030 5e fd 66 be 11 e7 87 be a3 c2 f8 3d b8 88 15 3e
       -0.2255759 -0.26543477 0.12146499 0.14602935
000040 54 b2 61 3e b0 c6 80 be 9e fc 45 3d 8c 67 34 bd
       0.22040683 -0.25151587 0.048336618 -0.044044062
000050 62 17 45 be f1 ef a4 3d 38 ac 48 bd 88 0d 97 3d
       -0.19247201 0.08053578 -0.048992366 0.07375628
000060 82 1f af bc ef 50 80 3e 6f df 74 be 8c 36 d9 3d
       -0.021377329 0.25061747 -0.23913358 0.10606107
000070 d5 1c 82 be 71 af 4d bd f3 89 fe 3d 98 c4 83 3e
       -0.25412622 -0.050216142 0.124286555 0.25735927
000080 3c c4 50 3e b9 7c 95 3d 17 06 5a be b8 5c fb bd
       0.20387357 0.072991796 -0.21291386 -0.12273544
000090 3e 29 86 be ea 39 dd 3c b9 b8 e0 3c be d5 00 3c
       -0.2620334 0.027005155 0.027431833 0.00786346
0000a0 78 56 56 3e 4d 41 b8 3d d2 87 d5 3c a0 df 2c be
       0.20931423 0.0899683 0.02606574 -0.16882181
0000b0 69 e8 af 3d a4 80 62 be 19 95 0f be e6 94 4a 3e
       0.085892506 -0.22119385 -0.1402172 0.19783363
0000c0 07 20 7f be 37 5d 6d be f8 65 81 3e 0b 6a 93 3e
       -0.24914561 -0.2318009 0.25273108 0.28791842
0000d0 5a 89 f8 bc 2a 81 30 be 99 4d 86 3e 72 69 e9 3d
       -0.030338932 -0.17236772 0.26231077 0.11397065
0000e0 8f 9a f0 3d e5 36 4c 3d 5e 65 14 be 7c 76 dd 3d
       0.1174823 0.04985704 -0.14491794 0.10813615
0000f0 fa 6b ab 3c a4 30 3c be c1 46 10 be 57 0c 42 bd
       0.02092551 -0.1837793 -0.1408949 -0.04737505
000100 33 a5 01 3d 63 3d fa bd 05 a4 d9 3d 93 9e 95 3d
       0.031651687 -0.1221874 0.10626987 0.07305636
000110 ff 08 0f be 21 bc 56 3d 36 12 81 be 62 58 70 3d
       -0.13968275 0.052425507 -0.25209206 0.05867804
000120 d6 ed 1f bc 21 0e 72 3e b9 f1 a3 3c b8 87 22 be
       -0.009761294 0.23638202 0.020012723 -0.15872085
000130 2f 80 e0 bc c5 a8 4c be 20 b5 6f bc 8f 2c 32 3e
       -0.027404873 -0.19986255 -0.014630586 0.1739981
000140 37 97 07 be 50 8c 86 be 01 15 52 3e 76 aa cb 3d
       -0.13241278 -0.26278925 0.20515825 0.09944622
000150 de 4c 0b be 33 5e 68 3b 3e d8 60 bc 84 ce 2b be
       -0.13603541 0.0035456538 -0.013723431 -0.16777998
000160 f5 e6 7f be 9c d4 3c bd 3f 56 ca 3b dc b2 6b 3e
       -0.24990447 -0.046101198 0.006174832 0.23017448
000170 15 0b 51 3e 83 71 3e be 2c bf 5d 3e 0a 56 81 bd
       0.20414384 -0.18597989 0.21654958 -0.06315239
000180 8e 68 5d be e7 5f d3 3d 11 48 56 3e 88 4a 0f bc
       -0.21621916 0.10321026 0.20925929 -0.008745797
000190 9a 2a 1b 3e 2b 81 72 3e b8 10 4c bd 12 c8 a0 bd
       0.1515297 0.23682086 -0.04982063 -0.078506604
0001a0 da 6d 52 be 0a 9b 15 3e 6f cb 6c be 6f d5 88 be
       -0.20549718 0.14609924 -0.23124479 -0.26725337
0001b0 80 da 0b be cd c3 8a 3e d0 34 2f bd ca 2b fe 3d
       -0.1365757 0.2710251 -0.042774975 0.12410696
0001c0 1a f6 30 3c ed 29 be bd 52 60 d9 3d 7b 60 a0 bd
       0.010800863 -0.092853405 0.10614075 -0.07830902
0001d0 72 78 5d be 8f 3a b9 3c 2c 37 5d be dd 45 6f 3e
       -0.21627977 0.02261093 -0.21603078 0.23366494
0001e0 e7 38 81 be 10 3c 68 3e 26 13 7e be 04 36 61 be
       -0.25238726 0.22679162 -0.24811992 -0.21993262
0001f0 a3 ea 9a 3d 0a f6 66 3d f1 d6 4c 3e 09 8f a8 bd
       0.07564285 0.056386985 0.20003869 -0.08230407

net.2.weight f4 [64, 128]
000000 d7 dc 8e 3c 67 10 43 bd a1 ec c8 3c 36 90 5e bd
       0.017439289 -0.047623064 0.024526896 -0.05433675
000010 90 20 bd bd eb 92 94 3d d1 db 87 3d 18 9d af 3c
       -0.092347264 0.07254585 0.066337235 0.021437213
000020 b8 00 d4 bc ae 32 39 3d 99 b2 a1 bd fc 09 83 3d
       -0.025879249 0.045214348 -0.07895393 0.06398389
000030 93 f6 9f 3d 24 56 73 bd 26 bb b8 3b c1 63 77 3d
       0.07810702 -0.059408322 0.005637544 0.060397867
000040 46 79 9c bb 84 fb a6 bc 2e f4 17 3d 78 fb 43 bc
       -0.004775199 -0.020383604 0.037098102 -0.01196181
000050 fe 6e 16 ba 47 f1 2f 3d a0 5e aa 3c 6d e1 5b bc
       -0.0005738585 0.04295471 0.020797074 -0.013420445
000060 84 5a 37 bc b1 e5 bf bd 0c a1 9e 3d e5 f6 5c 3d
       -0.011191014 -0.09369982 0.07745561 0.053946394
000070 9b ff 27 bd 40 93 aa bd 4b c6 ac bc f6 74 af bd
       -0.04101525 -0.08328867 -0.021090647 -0.085672304
000080 ee 27 b4 bc a4 a1 62 bd 84 bf 48 3d c0 1f 1a bd
       -0.021991696 -0.055329934 0.04901077 -0.037627935
000090 b6 c1 3c bd 39 ec 32 3d 48 f2 16 bb 9a 53 bd 3c
       -0.046083175 0.04368231 -0.0023032594 0.023111153
0000a0 db e7 81 3d c2 1f 00 bd 78 41 29 bd ff 49 89 3c
       0.06343051 -0.031280287 -0.0413222 0.016758917
0000b0 a0 34 97 3c 78 3b 6c bc a7 d6 3d bd 58 e4 76 bd
       0.01845771 -0.014418475 -0.046347287 -0.06027636
0000c0 e8 9d 74 3b 7f 23 a4 3d aa 7a 10 3d 29 11 a7 3c
       0.0037325565 0.08014583 0.03527323 0.020393925
0000d0 9f 02 8b bc 08 cc 93 bc 81 b5 d9 bc 88 03 9f bc
       -0.016969023 -0.018041626 -0.026575806 -0.019410864
0000e0 a7 da 98 bd d0 88 e5 b9 41 65 8f 3d 75 e6 0a 3d
       -0.074635796 -0.00043780217 0.070017345 0.033911187
0000f0 97 ca c8 bc c5 9d a9 3d 26 9a 99 bd b8 5f 3f ba
       -0.024510665 0.08282045 -0.075001046 -0.0007300335
000100 49 80 05 bc 7f 25 20 bd 29 bc 4b 3d ef 7c 8a bb
       -0.008148261 -0.03909826 0.04973999 -0.004226319
000110 a4 c4 ba bc 6b e6 3f bd 8e 61 2e 3d 44 ed 0c 3d
       -0.022798844 -0.046850603 0.042573504 0.03440596
000120 a5 10 f7 bb 68 dc 69 3d 7b ad 98 3d 40 8f c8 bb
       -0.007539826 0.05709496 0.07454964 -0.0061205924
000130 2d 63 a6 3d db bf b2 3d 99 73 57 bd 62 83 60 3d
       0.08124385 0.08728 -0.052600477 0.054812796
000140 8e c2 fd bc a0 73 11 bc 30 df 7f bd 21 06 aa 3d
       -0.03097656 -0.008877665 -0.062468708 0.0830195
000150 85 5c 93 bd e6 8f 98 bd b9 e3 70 3d 29 fb 23 bd
       -0.07195381 -0.074493214 0.058810923 -0.040034447
000160 ea ca 54 3d 40 8e be 3a 77 7d 43 3c e1 5b 9b bd
       0.051951326 0.0014538243 0.011931769 -0.07585884
000170 f4 44 86 bd a4 df 12 3d f2 96 84 bd 18 f6 e0 bc
       -0.065561205 0.03585781 -0.06474103 -0.027461097
000180 5c 5b b1 bd c9 da 79 3d d4 ab c0 3c 6e 53 79 bd
       -0.086600035 0.060999665 0.023519434 -0.06087058
000190 39 d4 88 bd f3 1e f9 3c 02 22 02 bd 19 83 23 bd
       -0.06681103 0.030410266 -0.031770714 -0.039919946
0001a0 87 21 64 bd a0 30 7a bd 53 ba 05 3c 90 04 43 3d
       -0.055696037 -0.06108153 0.008162099 0.047611773
0001b0 b6 2c 89 bd 87 b0 86 3c 58 8a 3b 3c aa f5 84 3c
       -0.06697981 0.016441597 0.011446558 0.016230423
0001c0 72 77 6f bd 79 2b b7 3b fb ad 3c 3d cf 29 8f bd
       -0.05846352 0.005589899 0.04606436 -0.06990396
0001d0 fc c5 9b 3d 34 80 4e 3c a0 b9 81 bb 18 29 54 3d
       0.07606122 0.012603808 -0.003958896 0.051797003
0001e0 f0 6c 84 3b d3 82 fa 3b a0 ad 88 3c 90 3c 56 3d
       0.0040413067 0.00764499 0.016684353 0.05230385
0001f0 53 f6 18 bd e6 e9 a5 3d 8b b5 08 3d 47 12 c2 3c
       -0.037344288 0.08101253 0.033376258 0.023690356
000200 49 86 13 3d 1b 15 a3 3c 00 20 4c 39 6d 9b 4f bd
       0.036016736 0.019907525 0.00019466877 -0.050685335
000210 f3 da 81 3d 70 cf cd 3b a4 06 a3 bc 15 78 a4 3d
       0.063405894 0.006280832 -0.019900627 0.08030716
000220 42 1e b1 3d a0 15 4c bd c1 e2 8c 3d 0b 0a f5 bc
       0.08648349 -0.04982531 0.068791874 -0.029912015
000230 16 7b 93 3d a8 cf 03 bc 38 ad 4a bd aa 51 9c 3b
       0.07201211 -0.008045115 -0.0494816 0.0047704773
000240 ef ec 77 3b 4e 68 a1 bd ef bd 51 bd 48 bc 2c bd
       0.0037830432 -0.07881223 -0.051206525 -0.042171746
000250 3f 9e c5 3c fb 9c 44 3d 5b 7b 9c bd 5a 8e 02 bd
       0.02412331 0.04800127 -0.07640716 -0.03187404
000260 7d 28 82 bd 3b f8 9d bd 24 7d a1 3d 00 99 8e 3d
       -0.06355379 -0.07713362 0.07885197 0.06962776
000270 aa 92 33 3d ca 6a 2a 3d 9c 5c 83 bc 22 c0 f6 bc
       0.04384104 0.04160575 -0.01603537 -0.030120913
000280 04 49 91 bd c0 e4 20 bb 44 aa fd 3b 5f 2b c6 bc
       -0.07094005 -0.0024550408 0.0077412445 -0.024190603
000290 6e 7b 3e bd 3b f7 ac bd 12 ae a5 bc c6 43 61 bd
       -0.04650443 -0.08445593 -0.020224605 -0.054996274
0002a0 9f e3 a1 3d c6 64 8b 3c ea 4a 15 3d cf df f9 3b
       0.079047434 0.017015826 0.036448397 0.007625557
0002b0 4f d9 7e bd c0 45 9b bb 38 cc 98 3d 5a 42 5c bd
       -0.06221896 -0.0047385395 0.07460827 -0.053774215
0002c0 1b 0c 9c 3d 0d 5c af bc ee 07 67 3d 7e 46 fc bc
       0.076194964 -0.021406198 0.056404047 -0.030795332
0002d0 a2 a2 3d bd 19 0a f5 bc a5 02 f5 bc 68 27 05 3c
       -0.046297677 -0.029912042 -0.029908488 0.008127071
0002e0 74 d8 83 3d 0c 01 09 bd b0 f4 95 bd fb 9a af bd
       0.064377695 -0.033448264 -0.07322061 -0.08574482
0002f0 d5 4d 58 bd 7e a8 f4 3c 6e 9b a2 3d 3a 66 8d bd
       -0.0528086 0.0298655 0.07939802 -0.06904264
000300 3b 06 36 3d 8c 6c 4b bd 6e a1 a7 bd 62 81 e2 bc
       0.044439536 -0.049664065 -0.08185087 -0.027649585
000310 80 5f 6e bb 99 17 a5 3d fe f2 29 3d a9 92 7c bd
       -0.003637284 0.080611415 0.0414915 -0.061663304
000320 00 f6 8d 3d 0f a2 68 3d 18 10 70 3d 05 e3 32 bd
       0.069316864 0.056795176 0.0586091 -0.043673534
000330 cf 6b b7 3b 4f cd cd bb db d8 a9 3d 67 f6 85 3d
       0.0055975686 -0.006280578 0.08293315 0.06541138
000340 98 6b ce bd 8f 2d 84 3d 3d e3 4e 3b 8b fa 3f bc
       -0.10079116 0.06454002 0.003156855 -0.011717449
000350 18 ce 6f 3d cd e3 30 3d b3 0d a0 bd 59 37 a8 3d
       0.058546156 0.043185998 -0.07815113 0.08213682
000360 7c b8 cf 3c 60 51 ba 3b 9b 25 69 bb 52 65 e6 bc
       0.025356524 0.00568597 -0.0035575393 -0.028124485
000370 d7 09 ef 3c 6e 37 2f bd 0e 8c 4b 3d 07 b2 8b bd
       0.029179497 -0.04277747 0.049694113 -0.068210654
000380 b9 99 a7 3b c6 c0 12 bd 83 88 a2 bd 2a c0 8e bd
       0.0051147607 -0.035828374 -0.07936194 -0.06970246
000390 69 ea d1 bc 7a f8 e3 bc 1b c6 94 3d 0a 64 6e 3d
       -0.02562447 -0.027828444 0.07264348 0.058200873
0003a0 00 de f6 3a 98 80 d7 bd 3b c7 29 3d 08 e8 a7 bd
       0.0018834472 -0.10522574 0.041449767 -0.08198553
0003b0 e0 b5 93 3c 69 2e db 3c 2b 78 ae 3d 6a 9e 3e 3c
       0.01803106 0.026755529 0.08519014 0.011634449
0003c0 94 90 9d 3d 5d ce 75 bc 0e 82 aa bd 31 31 86 bc
       0.07693592 -0.015002814 -0.08325587 -0.016380878
0003d0 78 ab af bd 67 d6 b7 bd 5e f1 2c bd be da 40 3d
       -0.08577627 -0.08976441 -0.042222373 0.04708361
0003e0 83 62 9f 3d 4e a5 01 bd 40 9e d3 3b 80 db 8b bd
       0.077824615 -0.031651787 0.006458074 -0.06828976
0003f0 47 86 cc bc e4 70 a3 bc 73 d9 d3 bb 25 9e fe 3c
       -0.024966372 -0.019951291 -0.006465131 0.031081269

net.2.bias f4 [64]
000000 3b 9c b9 3c e9 3e a1 bd 5b 90 0d bd 9a 04 77 3d
       0.022657504 -0.07873327 -0.034561496 0.060307123
000010 1b 1f 04 bd 4f a9 ac 3d 2d df 75 bd 0a 36 50 bd
       -0.032256227 0.084307306 -0.06002729 -0.050832786
000020 0d 41 91 bd 01 c1 78 3c 91 7e a8 bd 64 67 bd bd
       -0.070924856 0.0151827345 -0.082272656 -0.09248236
000030 23 91 8e 3c 6d 5b 9e bd 27 e6 32 bd e0 81 39 3b
       0.017403191 -0.07732282 -0.04367652 0.0028306171
000040 45 5e 82 bc a4 3b 86 3c 89 f1 46 bc 9d 3c ab b8
       -0.015914092 0.01638586 -0.012142547 -8.1652055e-05
000050 0e 29 31 3d 9d 4f 4c 3d 30 f6 16 3d da c2 d7 bc
       0.043252043 0.049880613 0.036855876 -0.02633803
000060 cf f2 8a 3d de b5 48 bd a3 66 b9 bb dd 4c 82 bc
       0.06784593 -0.049001567 -0.005657987 -0.015905792
000070 cb 71 a5 bd cc b9 32 bd 24 2b 94 bc 2d 35 ad 3d
       -0.08078345 -0.04363422 -0.018086977 0.08457408
000080 c5 74 35 bd c4 2f c8 bc 75 19 a8 bd 17 48 8a bd
       -0.044300813 -0.024436839 -0.082079805 -0.06752031
000090 79 fd 61 3d c7 6b 12 3d 81 16 91 3d 23 f8 59 3c
       0.05517337 0.035747316 0.070843704 0.013303789
0000a0 d0 aa cf 3a 30 4f 72 bd 63 e6 0c bd b6 d1 b4 bc
       0.0015843753 -0.05915755 -0.0343994 -0.022072654
0000b0 00 4f 8e bd 87 b0 88 bc 4a 56 3f bd 50 44 2f 3d
       -0.06948662 -0.016685737 -0.04671315 0.042789757
0000c0 2b bb c1 3c 76 4c a8 bc 4b f5 3a 3d 42 2a 9e bd
       0.023648819 -0.020544272 0.045644086 -0.07722904
0000d0 4d 07 3f 3b 93 69 ad 3d 6f 62 8c bc 9d 30 03 bd
       0.0029148639 0.08467402 -0.01713678 -0.032028783
0000e0 c0 ed e3 ba 33 0e 7c bd 2b 31 10 bb 36 d6 b4 3c
       -0.0017389581 -0.06153698 -0.0022001963 0.0220748
0000f0 6f ed a4 bd 0d 0e a9 bd d4 8d fc bc ba d0 e4 3b
       -0.08053099 -0.08254633 -0.030829348 0.00698289

net.4.weight f4 [1, 64]
000000 33 db 1b bc 80 01 83 bd 69 c3 73 3d e7 6b 9f bd
       -0.00951271 -0.063967705 0.05951253 -0.077842526
000010 44 9f 58 3d 8e 54 e1 3d 66 0e cb bd 1e 15 ca 3d
       0.052886263 0.11002456 -0.09914856 0.09867309
000020 e7 bf f1 3a 69 e2 16 3d 33 12 de bc 13 5b f3 bd
       0.0018444032 0.036837015 -0.027108287 -0.118826054
000030 c2 27 d5 bc be d9 ec bd f6 25 a3 3d 40 fb 51 3d
       -0.026019935 -0.115649685 0.07966225 0.051265
000040 41 c4 ba 3d 7b d3 a1 bd ac fb b0 3d a6 30 b7 bd
       0.09119464 -0.07901665 0.086417526 -0.08944826
000050 23 05 80 bc f9 ef 7f 3d 02 70 e0 bd 6a 66 9d bd
       -0.01562745 0.062484715 -0.10958864 -0.076855496
000060 df f2 11 bd 2e 82 bd ba 61 c5 fc bc df 9f fb bd
       -0.03563201 -0.0014458352 -0.030855836 -0.12286352
000070 12 02 6f 3d 18 b5 dc 3d 5a 9e d5 3d 28 65 0f 3d
       0.058351584 0.107767284 0.10430594 0.03500858
000080 30 dc 1a 3d 04 38 b4 bd c6 0a c8 3d 38 3e 1e 3d
       0.037807643 -0.08799747 0.0976768 0.038633555
000090 55 d2 45 3d 08 e3 c6 3d ab cd c2 bd be 8d 8e bb
       0.04829629 0.097112715 -0.09511884 -0.004350393
0000a0 8c c2 44 3c 61 47 52 3d 19 62 98 3d 07 1a 9d 3c
       0.012009274 0.051337603 0.07440586 0.01917745
0000b0 e3 1c cc bd 81 69 fb 3d 4b 94 00 bd 34 d0 0c 3d
       -0.09966447 0.12275983 -0.031391423 0.034378245
0000c0 a1 fc b4 bd d1 9d 81 bd 01 8b 9b 3d e0 33 ce bd
       -0.08837248 -0.06328929 0.07594872 -0.10068488
0000d0 60 82 e9 bd 52 a2 06 3d dd 75 48 3d b4 f1 90 3c
       -0.1140182 0.032869644 0.04894053 0.017693378
0000e0 b0 20 21 3c 00 bc 79 bd 9d 48 eb bd b3 3e cb 3d
       0.009834453 -0.060970306 -0.11488459 0.09924068
0000f0 b2 32 de 3d 70 cb ef 3d c1 78 f0 bd 81 04 42 3d
       0.10849513 0.117087245 -0.11741782 0.047367577
