models/student_md5.pt (torch, 44101 bytes, 5 tensors)

net.0.weight f4 [128, 14]
000000 8e 7b ae bd 9d 55 4f be 71 61 2b be c7 a6 31 be
       -0.0851966 -0.20247503 -0.1673639 -0.17348777
000010 ab 6f 01 3e 68 c6 2e be f6 d4 09 3e 9e 44 80 be
       0.12640254 -0.17067873 0.13460144 -0.2505235
000020 ee 99 0b 3e be 33 43 3e 80 eb f9 bd de 25 a3 bd
       0.13632938 0.19062707 -0.12203121 -0.07966207
000030 10 78 4b 3e 52 c6 37 3e eb 9e 79 be 2a 5c 13 3e
       0.19870019 0.17946747 -0.24377029 0.14390627
000040 cc 68 06 be 63 4e 0f be bf 93 74 3d 20 04 f4 bd
       -0.13125914 -0.13994746 0.059711214 -0.11914849
000050 e0 66 9c bc 59 d1 26 be 88 d4 be 3d 28 49 3c 3d
       -0.019092023 -0.16290797 0.09317881 0.045968205
000060 b4 a9 fe 3d 40 c1 6e be e4 14 77 be 18 f7 e6 3d
       0.12434712 -0.23315907 -0.24129063 0.11277598
000070 80 eb c7 b6 47 01 33 bd 6e 5d 53 3d cf 30 1c be
       -5.958078e-06 -0.04370239 0.051602773 -0.15252994
000080 ee 90 e1 3d 80 db 3b bc 50 94 60 be 64 92 47 3e
       0.11013971 -0.011465907 -0.21931577 0.19489437
000090 09 47 81 3e 5e a1 bf bd b8 b6 4c 3d e0 b8 0e 3e
       0.25249508 -0.0935695 0.04997894 0.13937712
0000a0 10 b0 92 bc ae 07 ad bd ce 5e 42 3e be 4d d6 3c
       -0.017906219 -0.084487304 0.18981478 0.026160117
0000b0 da f1 59 3e b7 0e 64 3e e8 a4 32 3e d8 5c a7 bc
       0.21283665 0.22271238 0.17445719 -0.020430014
0000c0 6a 00 af bd b8 60 ba 3d 3e af 37 be dc dd 6c bd
       -0.08545001 0.09100479 -0.17937943 -0.05782877
0000d0 48 e2 ed bc e4 33 6a be 78 db 0f 3e e8 18 25 3e
       -0.029038563 -0.22871357 0.14048564 0.16122782
0000e0 75 63 cf 3d 1b fe d8 3d 45 a2 ea bc cc 46 38 3d
       0.10126392 0.10595342 -0.02864183 0.044989392
0000f0 47 85 8c 3d 00 47 39 bc 15 4f 49 be fe b3 7c 3e
       0.06861358 -0.011308432 -0.19659074 0.24678037
000100 98 36 a7 bd 68 33 b9 bd c0 17 1d be 5a 4d 68 be
       -0.0816471 -0.09043008 -0.15341091 -0.22685757
000110 16 57 1e be 26 6f 59 be 88 74 1c 3e f1 29 a9 bc
       -0.15462908 -0.21233806 0.15278828 -0.020649882
000120 cf 87 ff 3d 10 d0 32 be 78 c3 14 3e 60 cc 43 3d
       0.12477075 -0.17462182 0.1452769 0.04780233
000130 1c ab cd 3d 6e c5 c3 bd 9e 35 66 3e d5 5f 84 3e
       0.10042402 -0.09559141 0.22481391 0.25854364
000140 3a 33 58 3e b0 76 57 3e 30 aa 6a 3e 60 a2 2f 3c
       0.21113291 0.2104137 0.22916484 0.010719866
000150 93 64 8c 3d 31 1f 4e 3c 73 1f ee 3d 23 bf f3 3d
       0.068551205 0.012580679 0.11627092 0.11901691
000160 e5 4e 53 3e f3 05 82 be 10 8d 77 3d 16 24 fe bd
       0.20635565 -0.25395164 0.060437262 -0.124092266
000170 be 69 12 be 33 6b 87 3e 60 8b 65 3d 44 24 3b be
       -0.1429815 0.26448974 0.05604112 -0.18275553
000180 34 c2 23 3e 70 57 8b 3d 30 f3 36 be f2 60 4c be
       0.15992051 0.06803787 -0.17866206 -0.19958857
000190 d8 12 5c be 29 d7 72 3e c9 7f 16 be 2a a4 af bd
       -0.21491563 0.2371489 -0.14697184 -0.08576234
0001a0 c0 1a 53 3c b0 98 83 bc 4a ea 9e bd b0 76 46 3d
       0.012884796 -0.016064018 -0.07759531 0.048453033
0001b0 28 7c 66 be 00 bf e1 bb e4 12 c4 3d 58 63 d2 3d
       -0.225083 -0.006889224 0.095739156 0.102728546
0001c0 2e 08 b3 bd d6 70 8d bd 5c c4 95 3d 16 fd db bd
       -0.087417945 -0.06906287 0.07312843 -0.10741632
0001d0 1a 3b 63 be bc a7 18 3e b8 55 d0 3d e0 a6 b8 3d
       -0.22190514 0.14907736 0.101725996 0.09016204
0001e0 fa 8e db bd 82 80 74 be 30 c8 dd 3d 4a 84 50 3e
       -0.1072063 -0.23877147 0.10829198 0.20362964
0001f0 20 92 06 3e a8 e5 cb bd ef 59 18 be 4c f9 47 be
       0.1314168 -0.09955913 -0.14878057 -0.19528693
000200 40 b9 c5 bb d0 92 65 be aa 30 85 be f0 75 32 3e
       -0.0060340464 -0.22419286 -0.2601369 0.17427802
000210 b8 a5 c4 bc e3 05 84 be 06 c9 7e be 20 cd 25 3c
       -0.024004802 -0.2578574 -0.24881372 0.010119706
000220 e8 41 24 3e 05 7a 88 3e 10 3f af bc aa 84 e6 bd
       0.16040766 0.26655594 -0.021392375 -0.112557724
000230 ed e4 11 3e 88 8b 63 bd 42 a3 25 be be 15 0f be
       0.14247485 -0.05555299 -0.16175559 -0.13973138
000240 79 db 64 3e 88 08 12 bd cc 94 76 be 88 f4 11 3e
       0.22349347 -0.035652667 -0.24080199 0.14253438
000250 1e 0f c8 bd 00 a2 2a 3d 4c f0 74 bd c0 6d 62 bd
       -0.097685084 0.0416584 -0.059799477 -0.055280447
000260 88 e7 53 be 1e 46 5a be f5 f7 79 3e c7 e9 85 be
       -0.20693791 -0.2131581 0.24410994 -0.2615492
000270 a0 8c c5 3c 2f 4e db bd f5 71 26 3d ba 0c 2e be
       0.024114907 -0.10708272 0.04063602 -0.16997042
000280 d2 cd 7e 3e 3f dc 0b be 60 3b fc 3c 1f ca 08 be
       0.24883202 -0.13658236 0.030790031 -0.13358353
000290 00 7e 5e ba f6 cd 16 be 5c db 86 be 8e b1 5a 3e
       -0.00084874034 -0.14727005 -0.26339233 0.21356794
0002a0 4b 6a 72 3e 5b b8 52 bd a7 0e 20 3e 32 3e 2e be
       0.2367336 -0.051445346 0.1563059 -0.17015913
0002b0 26 b5 70 3e a0 ef 5a bc a0 47 3a bd 80 90 77 bd
       0.23506603 -0.013362795 -0.045478463 -0.06044054
0002c0 c8 30 a2 bc b8 3c 50 be 74 f2 e8 3d 50 13 bb bd
       -0.019798651 -0.20335662 0.11374369 -0.09134543
0002d0 a0 af 87 be 50 bc 18 3e 30 bd 52 bd b0 68 e2 bc
       -0.2650118 0.14915586 -0.051449955 -0.02763781
0002e0 b6 1d 68 be 56 0d 81 be 60 25 75 3d 19 4c 68 be
       -0.22667584 -0.25205487 0.059850097 -0.22685279
0002f0 40 08 3c bc f2 7b 73 3e a2 5d 1b be c4 09 ee bd
       -0.011476576 0.2377775 -0.15172437 -0.116229564
000300 6e 0d 2d 3e 64 ad cd 3d 1e 8f 78 3e 51 0e 67 be
       0.16899654 0.10042837 0.24273345 -0.22564055
000310 cc c0 d1 3d 91 cb 4b 3e 30 29 d5 bd c1 e7 82 3e
       0.10241851 0.19901873 -0.104082465 0.2556744
000320 ac 3f 57 3c ba c5 62 be 2c 95 8d 3d 40 2b 07 3c
       0.013137739 -0.22145739 0.06913218 0.008250058
000330 c2 c7 7d 3e c0 f9 04 be e8 6b 6c be b0 d4 00 be
       0.24783233 -0.12985897 -0.23088038 -0.12581134
000340 44 25 f6 bd bc 41 09 bd e1 2d 7e bd 02 5e 66 be
       -0.120188266 -0.033509955 -0.062055472 -0.22496799
000350 75 b5 91 3d 8c 06 81 3e 1e da 4a 3e 9c ac 85 bd
       0.07114688 0.25200307 0.19809768 -0.06527063
000360 80 78 14 3e 7c 57 8e bd e6 77 58 3e f7 55 87 be
       0.14499092 -0.0695028 0.21139488 -0.26432773
000370 73 2c 84 3e 16 0d 06 3e 3c fd 23 bd c2 0f f2 bd
       0.25815162 0.1309093 -0.040036425 -0.11819412
000380 d2 fa 4c be 90 11 ec bd e0 fa 26 be ba 9f 69 be
       -0.20017555 -0.11526787 -0.16306639 -0.22814837
000390 18 95 e6 3d dc a0 01 be 22 de 1a be 8e f9 0f 3e
       0.11258906 -0.12659019 -0.151238 0.14060041
0003a0 d0 96 1a 3e b4 6e 57 3e 3c ea cc bd ed 3a 42 be
       0.15096593 0.21038324 -0.10005614 -0.18967791
0003b0 88 ef 28 3e 76 21 25 3e 59 54 53 bd 89 1a 11 be
       0.16497624 0.16126046 -0.051594112 -0.14170279
0003c0 10 46 53 3e 1a 29 64 be 47 6a 11 3e 95 e9 85 be
       0.20632195 -0.22281304 0.14200698 -0.2615477
0003d0 9a de 27 3e d0 06 2f 3e 20 a5 e2 3c b2 ec 1f 3e
       0.1639351 0.17092443 0.027666628 0.15617636
0003e0 a0 82 19 3c 78 8d 81 bd 2c 9f 66 bd fc 14 36 3e
       0.009369522 -0.06325811 -0.056304142 0.17781442
0003f0 34 a6 db bd 70 db af 3d 98 a5 e9 3d ac 6c 17 be
       -0.1072506 0.08586776 0.114085376 -0.14787549

net.0.bias f4 [128]
000000 57 db 44 3e 84 79 13 3e 74 61 70 be 54 a1 1e be
       0.19224297 0.14401823 -0.23474675 -0.1549123
000010 b7 b3 53 be 6b 8a 88 3e c6 d2 2b 3e 72 68 3f 3e
       -0.20674025 0.26668105 0.16779622 0.18692186
000020 c6 55 a4 bd 6e da 07 3e 3b 0a 78 be 90 05 01 be
       -0.080241725 0.13266918 -0.24222653 -0.12599778
000030 ae 41 47 3e 60 a4 42 bc 3c df be 3d 12 f6 d8 bb
       0.19458649 -0.01188001 0.09319922 -0.0066211307
000040 c0 70 fa 3c 84 52 f1 3d f2 37 45 be 1c c3 2f be
       0.030571342 0.11783317 -0.19259623 -0.17164272
000050 09 89 03 3e 8f 79 3c bd 10 32 35 3e ca c2 2c be
       0.12845244 -0.046014365 0.17694879 -0.16871181
000060 10 cb 99 bd 7a da c9 3d ed 0c 72 be 5f 55 21 3e
       -0.07509434 0.09856124 -0.23637743 0.15755223
000070 05 92 65 be 90 55 14 be 69 ac 23 bd 2e c9 08 3e
       -0.22418983 -0.14485765 -0.039959345 0.13357994
000080 5c 1d 7e bd 16 a0 20 3d 79 8d 2a 3e 0e e8 3a be
       -0.062039718 0.03921517 0.1665553 -0.18252584
000090 64 0c 3a 3e 04 03 33 bd b2 b2 69 3e 8b 66 5e 3e
       0.18168789 -0.043704048 0.22822073 0.21718805
0000a0 6e 38 24 3e ae 78 85 be 6f 53 1f 3e 8e 70 4c 3e
       0.16037151 -0.26068634 0.15559171 0.19964811
0000b0 c0 46 62 3d d2 f2 68 3e 2f 7e 88 3d 8e 53 22 3e
       0.055243254 0.22748879 0.066646926 0.15852186
0000c0 da 91 01 be 28 19 d4 3d 4b df 83 3e ed b6 87 be
       -0.12653294 0.10356361 0.25756297 -0.2650675
0000d0 93 0f 42 3e 0a a7 2a be dc e2 2d bd c0 33 b8 bb
       0.18951254 -0.16665283 -0.042452678 -0.0056214035
0000e0 06 4a 5d 3e 44 f2 0e 3e 8d 98 1e 3c 85 7c 61 be
       0.21610269 0.13959605 0.009679926 -0.22020157
0000f0 5a 7a d7 bd de 8e 6f 3e 41 35 21 be 0a d8 01 3e
       -0.105213836 0.23394343 -0.15742971 0.12680069
000100 08 26 40 3e 53 0f 7f 3d a6 dd 3f be 5b 48 85 be
       0.18764508 0.062270474 -0.18736896 -0.26031765
000110 f9 95 f4 3d 35 2d 73 bb ed cf 08 3e 37 64 a6 bd
       0.119426675 -0.0037105803 0.13360567 -0.08124583
000120 11 f6 37 be 33 ec 48 3e 08 e3 4f be 74 a7 6b 3e
       -0.1796496 0.19621353 -0.2030145 0.23013097
000130 88 b5 f9 bd 0f cd 33 be 0a d7 10 3e ea 69 0a be
       -0.121928275 -0.17558692 0.14144531 -0.13516966
000140 73 3e e0 ba e6 53 1e 3e 38 71 fa 3d 97 38 1a 3e
       -0.0017108455 0.15461692 0.12228626 0.1506065
000150 cd 10 2a bc eb 28 3b 3e 40 c5 b9 bd bd ef 6c 3e
       -0.010379982 0.18277328 -0.090708256 0.23138328
000160 4a bf 28 3e 4a e6 fc 3d d1 2c 01 3e e4 57 12 3e
       0.16479221 0.12348612 0.12614752 0.1429134
000170 22 40 64 be d8 db 28 be a6 54 07 3e 32 7d 02 be
       -0.2229009 -0.16490114 0.13215885 -0.1274307
000180 b8 81 17 bd 5d 54 d0 3d 13 e2 47 be 70 95 32 3e
       -0.036988944 0.10172341 -0.19519834 0.17439818
000190 2f ad 49 be 00 79 a9 3a 50 5e 43 3d b9 30 48 3e
       -0.1969497 0.0012929738 0.047697365 0.19549836
0001a0 3b 95 2b 3e 69 20 66 be c7 81 24 bd a9 c7 f5 bd
       0.16756146 -0.22473301 -0.040162828 -0.12000973
0001b0 dc e9 13 b9 bc 4a 70 be b0 3a 02 be 90 d7 64 3e
       -0.00014106132 -0.23466009 -0.127177 0.22347856
0001c0 a5 52 ce bd 80 fd 9b 3c 53 f0 4c bd a9 b8 5b be
       -0.10074357 0.019041777 -0.05003388 -0.21457161
0001d0 bc 2b 21 3e ae dd 28 3e 70 f5 fb bc 0b 73 7f be
       0.1573934 0.16490814 -0.030756682 -0.24946229
0001e0 97 3e 4c be 9f b3 11 be cb 83 51 be 78 ee 50 3d
       -0.19945751 -0.14228676 -0.20460431 0.05100867
0001f0 54 9e 50 3e 81 36 6a be c9 8b c6 3d 87 32 7b be
       0.20372897 -0.22872354 0.09694631 -0.24530993

net.2.weight f4 [64, 128]
000000 b2 fe 76 3d f8 a4 62 3d 7a 36 5a bd f0 fd 1a bc
       0.06030149 0.055333108 -0.05327461 -0.0094599575
000010 22 a5 f9 bb 88 f7 9f 3d 81 3c d3 3b 45 06 49 3d
       -0.0076185623 0.07810885 0.0064464216 0.049078245
000020 76 9d 1c 3d c0 12 19 bb 7b 92 95 bd 00 8d c4 3a
       0.038236104 -0.0023357123 -0.073033296 0.0014995635
000030 f4 d4 99 3c 34 1b bc 3c 59 67 af bd ef f7 e2 bc
       0.018778302 0.02296219 -0.08564634 -0.027706115
000040 b8 ef d2 3c ca fe bd bd bf ee d7 bc 71 b3 a8 3d
       0.025749072 -0.09277113 -0.02635896 0.08237351
000050 48 24 5c 3d a5 07 64 bd c0 0e bc 3b b8 0c 3d 3c
       0.053745538 -0.055671353 0.005739063 0.011538677
000060 09 b8 1d bd f4 ed b6 3c 60 7f 56 3b fd 81 8b bc
       -0.038505588 0.022330262 0.003272973 -0.017029757
000070 2b 44 92 3d 58 1f 3b 3d 1a d2 97 3d 52 6e 72 bd
       0.07141908 0.04568419 0.074131206 -0.05918724
000080 d4 01 5a bd 4f bf 24 3d 90 e2 a7 bb 5c 08 4d bc
       -0.0532244 0.04022151 -0.005123444 -0.0125142
000090 d1 ee e3 bc c0 65 67 bb 92 04 10 bd 51 6e 73 3c
       -0.027823837 -0.003530845 -0.03516061 0.014857844
0000a0 a4 71 43 bd 68 41 51 3c 5c c7 be bd e3 2c 97 3d
       -0.047715798 0.012771942 -0.093153685 0.07381608
0000b0 24 3f ac bd 54 fb d8 39 7d 5e 8d 3d 28 64 33 bd
       -0.084104806 0.00041385985 0.06902788 -0.04379669
0000c0 4b e9 3f bd 2e 29 5d 3d 3b 90 34 bd 20 32 63 bd
       -0.046853345 0.05399435 -0.04408286 -0.055467725
0000d0 86 a1 66 ba ee 22 aa bd 1a f4 74 3d 1a 59 23 3d
       -0.00087978726 -0.083074436 0.059803106 0.039879896
0000e0 ff 27 92 bd 9e 7b 6f 3d f1 94 83 bd 74 1a 10 3d
       -0.07136535 0.0584675 -0.06424893 0.035181478
0000f0 ac fb 8f bd d7 79 3b bc 81 52 06 bd 8f b2 9f 3d
       -0.070304245 -0.011442623 -0.032793526 0.07797729
000100 d7 98 74 bd 10 d9 a3 3b 32 e9 66 3d 3f 82 9d bd
       -0.059716072 0.005000241 0.056374736 -0.07690858
000110 10 ef 9b bc 73 5a 05 3d 2f bb 4a 3d 81 ab 62 bd
       -0.019034892 0.032556962 0.04949492 -0.05533934
000120 1c a5 7c 3d 44 8d 8d bd f7 7a 77 bd 47 2d 3b 3d
       0.061680898 -0.0691171 -0.060420003 0.045697477
000130 34 3b 8b bc c8 ec 63 bd 3e f6 51 bd 10 12 80 bd
       -0.016996004 -0.055645734 -0.051260225 -0.06253445
000140 ec 74 16 bd f8 27 4b 3c a0 e9 e4 3c 3c f1 73 3d
       -0.0367326 0.012399666 0.027943432 0.05955623
000150 ac 03 52 bc 30 40 a9 bc fc 83 85 bc 72 94 cc bc
       -0.012818258 -0.02066049 -0.016298287 -0.024973128
000160 7b f1 27 3d 30 d6 4e bd c9 8e 20 3d 0b 91 a3 3d
       0.041001778 -0.050497234 0.03919867 0.07986649
000170 00 c3 be 3c 77 f1 05 bd 26 10 4e 3d f8 7e f6 bb
       0.023286343 -0.032700982 0.05030837 -0.00752246
000180 fe a6 f6 3c ce d7 a8 bd 85 a2 4e bd 70 04 2f bd
       0.030108925 -0.082442865 -0.05044796 -0.04272884
000190 00 fa 89 3a 82 a7 a8 bd df 8c a8 3d 37 3f 03 bc
       0.0010526776 -0.082350746 0.08229994 -0.008010677
0001a0 74 dc ba bc 80 2e 43 bb 22 d6 80 b9 b3 30 8a 3c
       -0.022810198 -0.0029782355 -0.00024573604 0.016868925
0001b0 95 f8 28 bd e2 16 05 bd db 90 a2 3d 98 9b 8e bd
       -0.04125269 -0.032492526 0.07937785 -0.06963271
0001c0 b2 fe 44 3d db 3a 85 3d 96 86 49 bd 60 bd 87 3b
       0.04809446 0.065053664 -0.049200617 0.0041424483
0001d0 22 72 4d 3d 84 d3 01 3c 1f fa a1 3d 2c 7f eb 3c
       0.050157674 0.007923964 0.07909035 0.028747164
0001e0 36 db 9c bd d1 8f a5 3d 49 04 b2 3d b6 c2 98 3d
       -0.07658999 0.080840714 0.086922236 0.07459013
0001f0 04 35 f4 3c ea 84 46 bd 10 fd 6e 3d f9 c9 85 3d
       0.029810436 -0.0484666 0.058346808 0.06532664
000200 9e 4e 60 3d 31 54 7f 3d 41 31 70 bd 8e 59 3b bd
       0.054762475 0.06233615 -0.058640722 -0.045739703
000210 e9 d6 63 bd 99 9d bb bd 8f 46 03 3d 98 35 6c bc
       -0.055624876 -0.09160919 0.03204971 -0.014417075
000220 31 6c 86 3d 3a 83 93 bd c4 e1 3e 3b c0 25 8b bd
       0.065636046 -0.07202764 0.0029126266 -0.067943096
000230 ff be a1 bd 94 e9 33 bd a8 70 28 3d 8e c1 98 3d
       -0.07897758 -0.04392393 0.041123062 0.074587926
000240 8a 66 71 3d 63 0e 8a 3d 43 f0 eb 3c 00 13 17 3a
       0.05893568 0.06741025 0.02880109 0.0005763024
000250 11 3f 27 3b ef b0 d7 3c 60 b3 fb 3b 1c 58 9d bd
       0.0025519768 0.026329486 0.0076812953 -0.07682821
000260 d9 0e a6 3d 6d 87 a7 3d d3 b5 6c bd 04 60 75 bd
       0.08108301 0.08180127 -0.05779059 -0.05990602
000270 91 b3 71 bd fc 67 90 bd 5d 86 f0 3c a0 e8 a1 bc
       -0.05900914 -0.070510834 0.029360944 -0.019764245
000280 88 aa dd bc c4 16 8a bd bf bf 7c bb ed 40 fe 3c
       -0.027058855 -0.067426234 -0.0038566438 0.031036818
000290 c1 9d 89 3d 0d cd ac 3d e0 a4 a6 3c 64 95 a5 3c
       0.06719542 0.08437548 0.02034229 0.020212837
0002a0 fc 07 99 bd 42 5b 3c bd df d3 7a 3a af 57 a9 3d
       -0.07472226 -0.045985468 0.00095683144 0.082686774
0002b0 6e 3c 1c 3d 08 e8 22 bd 31 39 f4 bc fd e6 fc bb
       0.038143568 -0.039772063 -0.029812427 -0.0077179656
0002c0 b8 9a b6 bc 20 ab 5a bc ac e7 ff 3c 7d 8a 8c 3d
       -0.022290573 -0.013346463 0.0312384 0.06862352
0002d0 68 2a ad 3d 07 72 9a 3c 4b b4 a7 3d 70 0f 50 3c
       0.08455354 0.0188532 0.08188685 0.012698993
0002e0 9c 50 dc 3c 77 f1 92 3c 28 6b ef 3b 10 e5 98 3c
       0.026893906 0.017937405 0.007306475 0.018663913
0002f0 94 d7 8e bd 6a 4a a3 bb 6b fb 57 bc 6e 89 a4 3b
       -0.06974712 -0.004983236 -0.013182501 0.0050212657
000300 79 e6 5f 3d 49 bf a6 3d ab 20 8c 3d 8f 8d 43 bd
       0.054663155 0.081419535 0.068421684 -0.047742423
000310 fb 35 79 bd 4c 5b 6d ba 06 6f 8d 3d 43 e3 65 bd
       -0.060842495 -0.0009054437 0.06905942 -0.056124937
000320 c8 68 ff bc 99 da 32 bd 97 1c 37 bd 24 a4 f0 bc
       -0.031177893 -0.043665502 -0.044705 -0.029375143
000330 96 ce 1e 3d 77 8e 96 3d f5 ab c4 bd ab a4 a6 3d
       0.038771234 0.07351392 -0.09603111 0.08136877
000340 78 17 52 bd 17 ca 74 3d 23 3e 39 bd df d8 3b bc
       -0.051291913 0.05976304 -0.045225274 -0.01146528
000350 44 bd 9f 3d 57 56 d7 3c 5f 03 7b bd 5b 49 7b bd
       0.077997714 0.026286287 -0.06128251 -0.061349254
000360 3b 3f 95 bd 1a d9 15 3c 68 5a 72 bd 08 f4 32 bc
       -0.07287451 0.009145999 -0.05916825 -0.010922439
000370 18 2c 37 3c 08 e9 f5 bc e0 b5 e3 3c 7d 92 36 bd
       0.011179946 -0.030018345 0.027796686 -0.044573296
000380 f6 79 a8 3d 7e 7f 0c bd fd 1c 36 3d bb d6 85 bd
       0.08226387 -0.034301274 0.04446124 -0.06535097
000390 1f 60 5d bd 06 cb ab bd 63 72 a3 3d ff c3 1f bd
       -0.054046746 -0.08388333 0.07980802 -0.039005276
0003a0 7c f9 41 bd 9a 40 85 bd ed 33 ae bc 7e 0f 60 bd
       -0.047357067 -0.065064624 -0.021264995 -0.054702275
0003b0 ce 46 4c 3d 86 9e 55 3b 1e d7 ed bc 9c 38 67 bd
       0.049872212 0.0032595708 -0.02903324 -0.05645047
0003c0 3e 75 4a 3d 8d 77 83 3d 8b c2 70 bc f3 84 ae bd
       0.049428217 0.06419287 -0.01469482 -0.08521452
0003d0 68 85 15 bc ad 99 81 bc 0d ae 80 bd 04 9f 38 3d
       -0.009126045 -0.015820349 -0.062831976 0.045073524
0003e0 27 30 da bc af 8c 45 bd 44 62 9c bd c8 05 5d 3d
       -0.026634289 -0.04822987 -0.0763593 0.05396059
0003f0 3e 59 30 3d f6 0f 34 3d 3c a6 d7 bc 35 9d 4b 3b
       0.043053858 0.043960534 -0.026324384 0.0031069044

net.2.bias f4 [64]
000000 7a fa aa 3c 56 32 64 3d 26 31 a4 3d 9a 0d 69 bd
       0.02087139 0.055712067 0.08017187 -0.056897737
000010 ab 12 41 bd 4c ee 9f 3d 29 35 64 bd ac 41 ef bc
       -0.047136944 0.078091234 -0.05571476 -0.02920612
000020 ad 7f d2 3c d2 ee 75 3d bb c1 98 bb 3f 69 8e 3d
       0.025695646 0.06004221 -0.0046617663 0.06953668
000030 ff 7a 93 3d 67 37 98 3d f5 f2 8a bb 98 03 95 3c
       0.07201194 0.07432442 -0.0042403885 0.01819019
000040 f9 03 b3 3d bf 6b a2 bc ec fa 2b bd 25 c1 b4 bc
       0.08740992 -0.019826768 -0.041987345 -0.022064755
000050 5f 5b 2a 3d c7 08 67 3d 2c a7 f9 3c d2 61 a5 3b
       0.041591045 0.056404855 0.030475222 0.0050470615
000060 f0 9f d0 3b b5 32 3b 3c 5f 77 80 bc 2e 1a 86 3d
       0.0063667223 0.011425664 -0.01568192 0.06547962
000070 58 2f 43 bd 40 9d b7 bc db ce 19 bd c6 83 67 3d
       -0.047652572 -0.02241385 -0.03755079 0.056522153
000080 54 83 4d 3d 79 71 67 3d bd 4f 13 bd 83 2b 97 bd
       0.050174072 0.0565047 -0.035964716 -0.07381346
000090 76 a4 a2 bd 50 33 21 3d 03 10 28 bd cb d6 ca bc
       -0.07941525 0.039355576 -0.041030895 -0.024760624
0000a0 50 d3 b6 bb 3d c1 36 3d 9c 83 b8 bc ac 6a 36 3d
       -0.0055793896 0.04461788 -0.022523694 0.044535324
0000b0 16 86 f2 ba 80 a1 45 3a 22 09 fc bc f6 c8 a1 bd
       -0.0018503095 0.0007539019 -0.030766074 -0.078996584
0000c0 f2 5e ab 3d 3a 20 70 bd d6 8a 2f 3c ce 85 8a bc
       0.08367719 -0.058624484 0.010714253 -0.016909506
0000d0 be 8e 77 3d fe a8 0e 3d 17 66 7c bd da 05 79 bd
       0.060438864 0.034829132 -0.061620798 -0.060796596
0000e0 ba c9 1d bd d6 0d cf bc 47 92 4a 3c b4 d2 87 bd
       -0.03852246 -0.025275152 0.012363977 -0.06631985
0000f0 20 3f 6f bc e0 9b a7 bc 3d db ef 3b e6 4b 32 bd
       -0.0146024525 -0.02046007 0.0073198364 -0.043529414

net.4.weight f4 [1, 64]
000000 4f 87 05 bd 91 38 dd 3c e9 3d fa bd 93 3b a2 3d
       -0.032599743 0.027004512 -0.1221884 0.07921519
000010 20 cd 17 3d e9 84 03 bd 0d c8 52 bd b5 37 b5 bd
       0.037060857 -0.032109175 -0.051460315 -0.08848516
000020 ac 9c ad 3d 2b 5d b8 bd da 76 0f bd 80 d6 5b bb
       0.084771484 -0.090021454 -0.035025455 -0.00335446
000030 01 ab d7 3d 06 b7 c5 bd 4b 56 e1 bc 20 ce 94 bc
       0.10530663 -0.096540496 -0.027506968 -0.018164694
000040 a0 9b 71 bd 86 0c 22 3d f8 28 4e bb a8 6f f3 3d
       -0.058986306 0.039562725 -0.0031457525 0.11886531
000050 91 f0 2b 3c 08 ea ab bb f2 d0 60 3d a8 9a cc 3d
       0.010494367 -0.0052464046 0.054886766 0.09990436
000060 10 0f cf bc e6 49 de 3d 9d 4e b5 3d cd d0 d1 3d
       -0.025275737 0.10853939 0.08852885 0.10244904
000070 02 ee f3 bd fa 30 b9 bd 32 8a b0 bd a0 24 31 bd
       -0.11910631 -0.09042545 -0.08620109 -0.04324782
000080 1d 27 12 bd e0 cc 39 ba 54 3c c6 3d 87 1e ba 3d
       -0.035681833 -0.00070877187 0.096794754 0.09087854
000090 00 64 a6 bd 4a b7 39 3c 88 30 9f 3c 34 c2 26 3d
       -0.08124542 0.011335203 0.019432321 0.04071255
0000a0 80 32 6e bc 70 a1 3e bd 1a 79 f7 bd b1 77 b3 3d
       -0.014538407 -0.046540678 -0.12083645 0.08763064
0000b0 62 a7 fe 3c f0 24 01 bd 23 86 c5 bd 50 26 da bc
       0.031085674 -0.031529367 -0.09644725 -0.026629597
0000c0 32 91 c1 bc e2 4a ef bd e3 f3 cd bd ac ed a3 3d
       -0.023628805 -0.11684205 -0.10056283 0.08004317
0000d0 fa 25 c1 3d f8 20 73 3d c8 99 96 bc 30 18 ac bd
       0.094310716 0.059357613 -0.018383875 -0.08403051
0000e0 e0 34 d0 bc 79 c8 64 3d 50 42 ec 3d 69 a6 a7 bd
       -0.025415838 0.055855248 0.115360856 -0.08186037
0000f0 0a db 80 bd d4 3a 5c 3d 5f 7e 9c 3d 2c 05 d4 3d
       -0.062917784 0.05376704 0.07641291 0.10352549
