models/teacher_md5_tae.pt (torch, 885232 bytes, 56 tensors)

input_proj.weight f4 [64, 5]
000000 22 9c 0c 3e b0 96 e5 bd a7 88 d5 be ed 2c 4a 3e
       0.13731435 -0.11210382 -0.4170582 0.197437
000010 98 39 43 bd 74 8a 55 be 62 8b 70 be b7 30 79 be
       -0.047662348 -0.20853597 -0.2349067 -0.2433499
000020 13 67 a8 3e 64 4f a1 3e 54 7b 62 be b8 ca a9 3e
       0.3289114 0.31505883 -0.22117358 0.33162475
000030 49 5b eb bd 0f 11 f8 3d 2a 6a c6 3e 94 38 12 be
       -0.11492021 0.12112629 0.38752872 -0.14279395
000040 53 8f c3 3e 26 8d 92 3e 28 75 b8 3e 9a 24 20 3e
       0.38195285 0.28623313 0.36026883 0.15638962
000050 b9 49 9e be 8e e4 24 3e ec 8f 6d 3c ba b0 a5 be
       -0.3091562 0.16102812 0.014499646 -0.32361394
000060 0b 56 5e be 9a a6 23 3e e7 58 94 3e 6c 6b d5 3e
       -0.2171251 0.15981522 0.28974077 0.4168352
000070 b3 4b 27 3d 05 b2 b8 be ca 58 f2 3d 23 d3 21 be
       0.040843677 -0.36073318 0.118333414 -0.15803199
000080 7b 8f 23 be 57 a7 b9 be da 51 91 bd 87 7d c7 3e
       -0.15972702 -0.36260483 -0.0709569 0.38962957
000090 8e 3e 09 be d0 f2 5d be 5f f3 96 3e 02 ef 24 3d
       -0.13402769 -0.21674657 0.29482552 0.040266998
0000a0 ea e1 de 3e 04 f4 87 bd 61 78 92 be 18 29 6b 3e
       0.43531734 -0.06638339 -0.28607467 0.22964895
0000b0 ae 14 a8 3e 86 77 72 be 14 95 8e 3e 50 1e d0 3e
       0.32828277 -0.23678407 0.27848113 0.40648127
0000c0 26 d5 32 3e 5a 6d 59 be 0c f4 8e be ee 30 6f 3e
       0.17464122 -0.2123312 -0.27920568 0.23358509
0000d0 92 23 37 be 9c 36 89 3d 8c a3 af 3d c8 78 4f 3e
       -0.17884663 0.06699869 0.08576116 0.20260918
0000e0 2a d1 76 be 35 b4 33 be e8 e5 f3 bd 84 c0 34 bc
       -0.24103227 -0.17549212 -0.119090855 -0.011032227
0000f0 8f 35 97 3c 70 40 d1 be b3 86 9a 3e e4 de 5d 3e
       0.018458156 -0.40869474 0.30180892 0.21667057
000100 a6 ad 5c 3e 00 20 76 be 90 65 65 bc 84 9e b0 be
       0.21550617 -0.24035645 -0.014001265 -0.34495938
000110 bc 03 86 3e 8f a8 4e 3e b0 f1 6c be c9 71 ad 3e
       0.26174724 0.20181488 -0.23139071 0.33875874
000120 05 9e 9d 3c db 82 d7 3e 3c c4 a4 3e 3e b0 b2 3d
       0.019240389 0.42092022 0.32180965 0.08725022
000130 ca 11 bd 3d 8c 71 d1 3e 63 22 c9 bc 3c 76 cd 3d
       0.092319086 0.40906942 -0.02455253 0.10032317
000140 d1 18 21 3e e8 f3 c9 3e 5f ad b1 bd 3c 7f 31 3e
       0.15732123 0.39443898 -0.08675646 0.17333692
000150 d9 73 3f be 8d 66 6b be 1a b3 f4 3d 3d 19 d8 3e
       -0.18696536 -0.22988339 0.119482234 0.42206755
000160 d4 e9 7d 3e 86 6e db be a0 3f 8b 3e 6b 67 3f 3e
       0.2479623 -0.4285776 0.2719698 0.18691795
000170 b7 74 fc bc 8b 8b 8d 3e e2 c4 e0 be dc 33 db be
       -0.030817373 0.27645525 -0.4390021 -0.42813003
000180 2c b9 e5 bd a4 62 8c 3e dd 84 d5 bd 2d fa dc be
       -0.11216959 0.27419007 -0.10425732 -0.4315962
000190 ea 8d ea 3d 52 83 d5 be 03 0a 1e be 02 da de 3e
       0.11452849 -0.41701752 -0.15433507 0.43525702
0001a0 9f 25 cd 3e 0f 28 05 3d 01 96 aa be 35 9e e3 be
       0.40067765 0.032508906 -0.3331757 -0.4445664
0001b0 b7 ab 5e 3e ae 63 da 3e 7c 86 aa 3e 1f 8b eb 3d
       0.21745192 0.42654175 0.33305728 0.115011446
0001c0 fd b0 ba be ec ce bc be ae 3c af be a4 35 b5 3e
       -0.36463156 -0.3687662 -0.34225982 0.35392487
0001d0 70 dd af 3e fa 94 b0 3d 38 8d c0 be 7e 3e e5 be
       0.3434863 0.08622165 -0.3760774 -0.4477424
0001e0 54 87 98 3e 7d 8b 7d be f9 2d cc bd eb 69 54 be
       0.29790747 -0.24760242 -0.09969706 -0.2074353
0001f0 17 ba e2 be 4a e4 22 3e bc 87 aa be ca 68 e8 bd
       -0.442826 0.15907398 -0.33306682 -0.11348112
000200 f2 42 cd be dc b4 32 be dd 30 b8 3e 8d 32 9f be
       -0.40090138 -0.17451805 0.3597478 -0.31093255
000210 58 76 ec bd a7 b9 84 3e 47 c6 1a 3e 4a e2 59 3e
       -0.1154601 0.25922891 0.151147 0.21277729
000220 7f 01 0c be 0f be 07 3e c7 c8 e3 be 91 6a 03 be
       -0.13672446 0.13256095 -0.44489118 -0.1283362
000230 23 df 97 bd bd 94 1c 3e 2f 3a 94 be 48 61 b6 3e
       -0.07415607 0.15291114 -0.2895064 0.35621095
000240 61 e1 a3 be e4 4e c0 3d fe 84 bd be 1b fb 74 3e
       -0.32007888 0.09390047 -0.37015527 0.23923914
000250 6b 80 7d bd 28 c0 9f 3e 42 9b d7 be a6 fd b5 bd
       -0.061890047 0.3120129 -0.4211064 -0.0888627
000260 1f e5 6e 3d 5c 1b c1 3e d2 7b b7 be dc e8 86 be
       0.058323976 0.37716186 -0.35836655 -0.26349533
000270 35 39 5d 3e 69 e6 0e 3d 61 c3 cb 3d 2e ee 93 be
       0.21603854 0.034887705 0.09949375 -0.28892654
000280 f6 fd 8a be 8b 62 ea bc ea e2 9f be 7e ee ff bd
       -0.27146882 -0.028611442 -0.3122781 -0.12496661
000290 c2 72 82 3e a1 d7 68 3e ad bf 14 3e 27 12 65 be
       0.25478178 0.22738506 0.14526244 -0.22370206
0002a0 69 41 af be 7b aa 8f 3e be d3 cb be 62 92 69 be
       -0.3422959 0.28059754 -0.39809984 -0.22809747
0002b0 82 79 ab be 86 a8 61 3e 0a c7 cb be c0 c7 9e be
       -0.3349114 0.22036943 -0.39800292 -0.31011772
0002c0 e0 d0 cf be b1 fc d6 be c1 18 c5 3e 5c 27 a6 3e
       -0.40589046 -0.41989663 0.38495448 0.32451904
0002d0 6a 85 a4 bc c0 fc 8e 3e 55 e9 a0 3e 59 91 d0 3d
       -0.020083148 0.27927208 0.31428018 0.10183973
0002e0 b8 6c cf be fa 07 dc bd 2b aa 2c 3e f9 51 4b bd
       -0.40512633 -0.10743709 0.16861789 -0.049638722
0002f0 d8 e4 f6 bd e4 0b 72 3e 77 ed 0c be 8f 6b ce 3e
       -0.12055367 0.23637348 -0.1376246 0.40316436
000300 a9 f2 c6 be 61 11 88 be 91 91 af be 68 35 c1 be
       -0.3885701 -0.2657576 -0.34290746 -0.37736058
000310 de 86 3a 3c 05 ef b9 3d 24 91 00 be 66 79 a5 be
       0.011384694 0.090787925 -0.12555367 -0.32319182
000320 d3 97 aa 3e 97 fb ae 3e 52 e7 00 bc 8e c3 d1 be
       0.33318958 0.34176323 -0.007867651 -0.4096951
000330 08 a0 c4 3e c5 bf d5 be 79 6d d3 3e be 4a bd 3e
       0.38403344 -0.4174787 0.41294459 0.36971086
000340 a1 a8 0a be 01 ca db bd fa 73 55 be b6 15 d5 bd
       -0.1354089 -0.107318886 -0.20845023 -0.10404532
000350 07 f5 3b 3e 80 75 c2 be ea 7b d9 3e 92 79 32 3d
       0.1835519 -0.3798027 0.4247735 0.04357297
000360 70 a8 47 3e 5d 34 5b be cf e0 98 be e5 83 97 3e
       0.19497848 -0.21406694 -0.29859015 0.29592815
000370 2a 3d c2 3e ea 88 23 be 16 32 0f 3e 69 98 c7 be
       0.3793729 -0.15970197 0.1398395 -0.38983467
000380 55 85 39 3e d3 5b a2 be a5 96 27 bd 70 d2 bb 3d
       0.18117268 -0.3171068 -0.04091515 0.09170997
000390 21 7e 98 be 28 8b 7f be 31 22 b3 be 74 24 57 be
       -0.2978373 -0.24955428 -0.34987023 -0.2101
0003a0 64 13 96 be 01 ef 45 be 47 68 d2 be 71 b0 1d be
       -0.2931167 -0.19329454 -0.41095182 -0.15399338
0003b0 d7 39 13 be 61 fe 0f be 6a d6 5d 3e 6b 68 1b bd
       -0.14377533 -0.14061882 0.21663824 -0.037941378
0003c0 b1 a3 e2 bd e5 09 aa 3e 49 9a 8b be 8d c2 3b 3e
       -0.11066378 0.33210674 -0.27266148 0.18335934
0003d0 a8 c5 33 3e 89 4f 17 be ec e9 d1 bd b4 0c 73 bd
       0.17555869 -0.14776434 -0.10249695 -0.059338287
0003e0 27 f8 22 be 51 b5 78 3e 11 15 e6 bb 47 83 9b 3e
       -0.15914975 0.24287917 -0.0070215543 0.30373594
0003f0 9a d9 c4 3b b2 63 fe bd 76 24 d7 3e 63 9e 35 3e
       0.0060073854 -0.12421359 0.42020005 0.17736201

input_proj.bias f4 [64]
000000 2a a1 42 3d e7 33 ad 3e f3 c7 c1 3e 99 f8 da 3e
       0.04751698 0.3382866 0.37847862 0.4276779
000010 f6 72 e2 be cc e8 bb 3e 21 56 c5 be 8f 06 ca be
       -0.44228333 0.36701047 -0.38542274 -0.3945813
000020 fe f6 b7 be 39 00 97 be ab 6c 87 be 92 b5 1a 3e
       -0.35930628 -0.29492357 -0.26450095 0.15108326
000030 fa 61 2e be 64 23 56 3e a1 36 d3 3e 97 ab 6c 3e
       -0.17029563 0.20911938 0.41252616 0.23112331
000040 d1 0a c0 be db bf d5 be 50 12 88 3e 6b 38 3a 3e
       -0.37508252 -0.41747937 0.2657647 0.18185584
000050 62 59 44 be 94 f0 ec 3d 48 a1 3a 3d 9c 30 7e be
       -0.19174722 0.11569324 0.045563966 -0.2482323
000060 71 50 47 3e 27 69 5f 3e fc b7 62 3e 7a c5 c7 3e
       0.1946428 0.21817456 0.22140497 0.3901785
000070 39 fd 82 bd 1a c7 e4 be 51 ee 82 be 3d fb c2 be
       -0.06395955 -0.44683152 -0.25572446 -0.38082305
000080 7f 5b 2f 3c e1 91 e4 3e 29 03 d3 bd 86 03 85 be
       0.010702967 0.44642547 -0.10303337 -0.2597925
000090 76 70 d1 be 58 f1 b6 3e 17 05 9d 3e dd 93 82 3e
       -0.40906113 0.35731006 0.30667946 0.25503436
0000a0 20 b5 b3 be 50 f7 d2 3d 32 b1 d7 bd e8 bf a0 be
       -0.35099125 0.10301077 -0.10531844 -0.31396413
0000b0 35 84 18 be 47 4d b1 3e 02 5f 81 be ec bc 03 bd
       -0.14894183 0.3462927 -0.25267798 -0.03216259
0000c0 29 6a 71 bd 68 76 a1 be b6 9d 34 be 64 f8 eb bc
       -0.058939133 -0.3153565 -0.17638287 -0.028804965
0000d0 4a 18 f8 3c 5e 49 44 be cc 0f 97 3e c3 3b a3 3d
       0.03028502 -0.19168612 0.2950424 0.07970383
0000e0 fa 97 ad bd a8 0f b0 be d3 58 98 3d a1 89 d3 3e
       -0.08476253 -0.34386945 0.07438817 0.4131594
0000f0 e5 54 19 be 62 54 99 be dd 7c 88 3e 04 bf 10 be
       -0.14973791 -0.2994719 0.26657763 -0.14135367

pos.pe f4 [1, 110, 64]
000000 00 00 00 00 00 00 80 3f 00 00 00 00 00 00 80 3f
       0.0 1.0 0.0 1.0
000010 00 00 00 00 00 00 80 3f 00 00 00 00 00 00 80 3f
       0.0 1.0 0.0 1.0
000020 00 00 00 00 00 00 80 3f 00 00 00 00 00 00 80 3f
       0.0 1.0 0.0 1.0
000030 00 00 00 00 00 00 80 3f 00 00 00 00 00 00 80 3f
       0.0 1.0 0.0 1.0
000040 00 00 00 00 00 00 80 3f 00 00 00 00 00 00 80 3f
       0.0 1.0 0.0 1.0
000050 00 00 00 00 00 00 80 3f 00 00 00 00 00 00 80 3f
       0.0 1.0 0.0 1.0
000060 00 00 00 00 00 00 80 3f 00 00 00 00 00 00 80 3f
       0.0 1.0 0.0 1.0
000070 00 00 00 00 00 00 80 3f 00 00 00 00 00 00 80 3f
       0.0 1.0 0.0 1.0
000080 00 00 00 00 00 00 80 3f 00 00 00 00 00 00 80 3f
       0.0 1.0 0.0 1.0
000090 00 00 00 00 00 00 80 3f 00 00 00 00 00 00 80 3f
       0.0 1.0 0.0 1.0
0000a0 00 00 00 00 00 00 80 3f 00 00 00 00 00 00 80 3f
       0.0 1.0 0.0 1.0
0000b0 00 00 00 00 00 00 80 3f 00 00 00 00 00 00 80 3f
       0.0 1.0 0.0 1.0
0000c0 00 00 00 00 00 00 80 3f 00 00 00 00 00 00 80 3f
       0.0 1.0 0.0 1.0
0000d0 00 00 00 00 00 00 80 3f 00 00 00 00 00 00 80 3f
       0.0 1.0 0.0 1.0
0000e0 00 00 00 00 00 00 80 3f 00 00 00 00 00 00 80 3f
       0.0 1.0 0.0 1.0
0000f0 00 00 00 00 00 00 80 3f 00 00 00 00 00 00 80 3f
       0.0 1.0 0.0 1.0
000100 a4 6a 57 3f 41 51 0a 3f ce 7a 2e 3f b0 54 3b 3f
       0.84147096 0.54030234 0.68156135 0.731761
000110 ba 7d 08 3f 0d 94 58 3f f0 90 d1 3e c7 92 69 3f
       0.53316844 0.8460091 0.4093089 0.9123959
000120 3e 39 9f 3e 6b 4e 73 3f 25 8f 70 3e f1 d5 78 3f
       0.3109836 0.9504153 0.23492105 0.9720145
000130 3a 23 35 3e 83 f6 7b 3f f3 25 08 3e 28 ba 7d 3f
       0.17689219 0.9842302 0.13295726 0.99112177
000140 76 75 cc 3d 98 b8 7e 3f 36 6f 99 3d d1 47 7f 3f
       0.099833414 0.9950042 0.07491915 0.9971896
000150 ae 36 66 3d 68 98 7f 3f fa ac 2c 3d bd c5 7f 3f
       0.05620449 0.9984193 0.04215715 0.999111
000160 5b 81 01 3d 3c df 7f 3f a5 3e c2 3c 93 ed 7f 3f
       0.031617504 0.99950004 0.023711512 0.99971884
000170 42 ab 91 3c a3 f5 7f 3f 49 7a 5a 3c 2c fa 7f 3f
       0.017781857 0.99984187 0.013334819 0.99991107
000180 57 d6 23 3c b9 fc 7f 3f 16 b9 f5 3b 28 fe 7f 3f
       0.009999833 0.99995 0.0074988706 0.99997187
000190 5a 44 b8 3b f7 fe 7f 3f 5a 2e 8a 3b 6b ff 7f 3f
       0.0056233825 0.9999842 0.0042169513 0.9999911
0001a0 1c 3e 4f 3b ac ff 7f 3f 03 69 1b 3b d1 ff 7f 3f
       0.0031622713 0.999995 0.0023713715 0.9999972
0001b0 20 15 e9 3a e6 ff 7f 3f 8a c9 ae 3a f1 ff 7f 3f
       0.0017782785 0.99999845 0.001333521 0.9999991
0001c0 6d 12 83 3a f8 ff 7f 3f 89 94 44 3a fb ff 7f 3f
       0.0009999998 0.9999995 0.000749894 0.9999997
0001d0 13 6a 13 3a fd ff 7f 3f 21 17 dd 39 ff ff 7f 3f
       0.0005623411 0.9999998 0.00042169637 0.99999994
0001e0 61 cb a5 39 ff ff 7f 3f 0d a8 78 39 00 00 80 3f
       0.00031622782 0.99999994 0.00023713727 1.0
0001f0 53 77 3a 39 00 00 80 3f 6d d4 0b 39 00 00 80 3f
       0.00017782794 1.0 0.00013335208 1.0
000200 b7 c7 68 3f 33 11 d5 be d9 5a 7f 3f 53 4d 91 3d
       0.9092974 -0.41614684 0.99748 0.070948265
000210 0a f2 66 3f b2 e8 dc 3e 11 35 3f 3f 03 39 2a 3f
       0.9021307 0.43146282 0.7469035 0.6649324
000220 1b 54 17 3f ec 7b 4e 3f b5 d3 e9 3e 69 be 63 3f
       0.5911271 0.8065784 0.45669332 0.8896242
000230 f6 47 b2 3e a6 fa 6f 3f 82 f0 86 3e f5 f2 76 3f
       0.34820527 0.93741834 0.26355368 0.96464473
000240 f8 6f 4b 3e a5 e5 7a 3f d3 00 19 3e 4f 20 7d 3f
       0.19866931 0.9800666 0.1494172 0.98877424
000250 86 d9 e5 3d f3 61 7e 3f ae 85 ac 3d 0e 17 7f 3f
       0.1122313 0.9936821 0.08423935 0.99644554
000260 c8 70 81 3d f9 7c 7f 3f aa 30 42 3d 4e b6 7f 3f
       0.063203394 0.9980007 0.04740969 0.9988755
000270 5c a5 11 3d 8e d6 7f 3f 50 75 da 3c b1 e8 7f 3f
       0.03555809 0.9993676 0.026667267 0.99964434
000280 3e d4 a3 3c e5 f2 7f 3f 51 b7 75 3c a1 f8 7f 3f
       0.019998666 0.9998 0.014997319 0.9998875
000290 9b 43 38 3c db fb 7f 3f 0a 2e 0a 3c ab fd 7f 3f
       0.011246587 0.99993676 0.008433828 0.9999644
0002a0 d8 3d cf 3b b1 fe 7f 3f e7 68 9b 3b 43 ff 7f 3f
       0.006324511 0.99998003 0.00474273 0.99998873
0002b0 08 15 69 3b 96 ff 7f 3f 7f c9 2e 3b c4 ff 7f 3f
       0.0035565514 0.9999937 0.0026670394 0.9999964
0002c0 68 12 03 3b df ff 7f 3f 85 94 c4 3a ed ff 7f 3f
       0.0019999985 0.99999803 0.0014997876 0.99999887
0002d0 12 6a 93 3a f5 ff 7f 3f 1f 17 5d 3a fa ff 7f 3f
       0.0011246821 0.99999934 0.0008433926 0.99999964
0002e0 60 cb 25 3a fd ff 7f 3f 0c a8 f8 39 fe ff 7f 3f
       0.0006324556 0.9999998 0.0004742745 0.9999999
0002f0 53 77 ba 39 ff ff 7f 3f 6d d4 8b 39 00 00 80 3f
       0.00035565588 0.99999994 0.00026670416 1.0
000300 c3 81 10 3e 26 70 7d bf de 3c 47 3f ce bf 20 bf
       0.14112 -0.9899925 0.7782725 -0.6279267
000310 d7 45 7e 3f ab 7f ed bd 63 21 74 3f 63 18 9a 3e
       0.9932532 -0.11596616 0.95363444 0.3009673
000320 c2 09 50 3f 58 2f 15 3f b7 24 27 3f a2 e7 41 3f
       0.8126489 0.58275366 0.652904 0.7574407
000330 6c 2f 02 3f 29 6d 5c 3f a7 68 c7 3e 37 c9 6b 3f
       0.5085361 0.86104065 0.3894703 0.92103904
000340 6c 4e 97 3e ef 90 74 3f e2 6d 64 3e 92 8c 79 3f
       0.2955202 0.9553365 0.22307542 0.9748012
000350 d7 ee 2b 3e 9e 5d 7c 3f 2c 33 01 3e 43 f4 7d 3f
       0.16790329 0.9858035 0.12617177 0.9920084
000360 c0 ff c1 3d 4f d9 7e 3f 06 93 91 3d 3a 5a 7f 3f
       0.094726086 0.99550337 0.071081206 0.9974705
000370 4e 69 5a 3d c3 a2 7f 3f c5 d1 23 3d 90 cb 7f 3f
       0.053323083 0.9985773 0.039994974 0.99919987
000380 1f b9 f5 3c 83 e2 7f 3f 47 47 b8 3c 6b ef 7f 3f
       0.0299955 0.99955004 0.022494925 0.999747
000390 c6 31 8a 3c ad f6 7f 3f 46 44 4f 3c c1 fa 7f 3f
       0.016869437 0.9998577 0.012650555 0.99991995
0003a0 0d 6e 1b 3c 0d fd 7f 3f 13 1d e9 3b 58 fe 7f 3f
       0.009486687 0.999955 0.0071140616 0.9999747
0003b0 a8 cf ae 3b 11 ff 7f 3f 13 17 83 3b 7a ff 7f 3f
       0.005334813 0.99998575 0.0040005534 0.999992
0003c0 92 9b 44 3b b5 ff 7f 3f 60 6f 13 3b d6 ff 7f 3f
       0.0029999954 0.9999955 0.0022496805 0.9999975
0003d0 17 1f dd 3a e8 ff 7f 3f 56 d1 a5 3a f3 ff 7f 3f
       0.0016870227 0.99999857 0.0012650888 0.9999992
0003e0 10 b1 78 3a f9 ff 7f 3f 09 7e 3a 3a fc ff 7f 3f
       0.00094868336 0.9999996 0.00071141176 0.99999976
0003f0 7e d9 0b 3a fe ff 7f 3f a4 be d1 39 ff ff 7f 3f
       0.0005334838 0.9999999 0.00040005625 0.99999994

encoder.layers.0.self_attn.in_proj_weight f4 [192, 64]
000000 ad b7 bf bd 81 18 6e bd 84 5e 08 bb 89 cf 8d 3c
       -0.09361205 -0.058128837 -0.0020808289 0.017310875
000010 51 89 01 3c 3a 12 a3 bd 6e 4b db 3d 3b 2c 18 3e
       0.007906274 -0.07962461 0.107077464 0.14860623
000020 8e 64 10 be 59 96 e3 3d 68 21 06 be 3e 42 e6 bd
       -0.14100859 0.11112661 -0.13098681 -0.112431034
000030 4d df b9 3c 86 d8 44 bd b2 5d 08 3e b7 b5 0e be
       0.022689486 -0.048058055 0.13316992 -0.13936506
000040 8e 41 0d be cb c9 94 3c f8 fa 9b bc 40 6a 3f bd
       -0.13794538 0.018162629 -0.01904057 -0.046732187
000050 3c 4d 13 be 1c 72 d4 bd 6b 25 4c bc 4a 5f df bd
       -0.14384931 -0.10373327 -0.012460093 -0.10906847
000060 44 ee b1 bd da 6b 51 bc de 6b 05 be 2a 53 96 bd
       -0.08688024 -0.0127820615 -0.1302943 -0.07340081
000070 4c 70 0b be bc 19 c9 bd e5 ab a5 3c db 78 a4 3c
       -0.13617057 -0.098193616 0.020223567 0.02007716
000080 d3 4a bd bd 61 0c 74 bd b3 3c 1a 3e bc 6b ed 3d
       -0.09242787 -0.059582118 0.15062217 0.11592814
000090 52 54 0f be 9e 2d 13 bc dd 95 45 3d fc 55 05 bd
       -0.1399701 -0.008983044 0.048238624 -0.032552704
0000a0 1b f8 1d 3e 68 30 a4 bc 5e 3b d9 3c 21 43 b5 3c
       0.15426676 -0.020042613 0.026517566 0.022126736
0000b0 f5 ca 1d 3e 15 8c 07 3e 4a fd e7 bd ee 1f 05 3e
       0.15409453 0.13237031 -0.11327608 0.13000461
0000c0 19 be 8b bd b0 ee 25 bc b0 7d 20 3d 8c 03 75 3d
       -0.068233676 -0.010127708 0.039182365 0.059817836
0000d0 b1 c7 de bd 6d 13 0c be 33 10 ec bd 30 a8 b0 bd
       -0.10877932 -0.13679285 -0.11526527 -0.08625829
0000e0 5e 9d 03 3e 8d 15 f8 3d 21 da 9d bc 57 31 a1 bd
       0.12853 0.121134855 -0.019269051 -0.07870739
0000f0 01 b4 f7 3d 1f 64 6e bd ec 2f 13 3e e2 ff d3 3d
       0.1209488 -0.05820095 0.1437375 0.1035154
000100 fd 84 7c 3c b1 fb 28 3d ef 9b 27 3d f3 92 ef 3d
       0.015412566 0.041255657 0.040920194 0.1169795
000110 a7 7a d9 3d 9c d5 06 3a 94 8a 16 bd e4 c0 82 bd
       0.10619097 0.00051435246 -0.036753252 -0.06384447
000120 db ef fd 3d 4f b0 10 be f7 bb bd 3c ae 52 e8 3d
       0.123992644 -0.14129756 0.023160918 0.11343895
000130 92 92 9e bd 75 21 e8 bd 9d ac f4 bd c7 00 aa 3d
       -0.077428 -0.113345064 -0.11946986 0.083009295
000140 da 3a 05 be c9 88 b7 bd de da a8 3d 29 35 85 bd
       -0.13010731 -0.089616366 0.082448706 -0.0650428
000150 e7 af e1 bd b0 3d 03 3e 08 5e 0b 3e a6 c0 c0 bd
       -0.11019879 0.128165 0.13610089 -0.09411745
000160 3a 30 95 3d fc 59 5e 3d 31 b7 06 bd 85 77 4c 3d
       0.07284589 0.054285035 -0.03288955 0.04991867
000170 90 db a2 bd 02 56 1c bd 41 3c f3 bb d3 76 bf bd
       -0.079520345 -0.03816796 -0.0074229543 -0.09348836
000180 44 68 0e 3e df 9c bf 3d 14 d9 11 be 76 0a 13 3e
       0.13906962 0.09356093 -0.14242965 0.1435946
000190 5d 44 b4 3d a3 58 05 3e 4f 38 87 3d 6c 84 19 3d
       0.08802102 0.13022093 0.06602537 0.037479803
0001a0 36 2d 8d bd 78 67 d2 bd 23 5c 8d 3d d6 62 97 bc
       -0.06893389 -0.10273641 0.06902339 -0.018479746
0001b0 21 05 71 bc 2c 00 e7 3c 01 7e a5 bd bc c1 83 bd
       -0.0147106955 0.028198324 -0.08080674 -0.06433436
0001c0 b6 de fc bc 93 e4 b7 3c 83 8c 11 bc 9c a1 97 bd
       -0.030867916 0.02244786 -0.008883598 -0.074038714
0001d0 f9 0d e0 bd 89 cf a3 bb a9 92 f7 3d 29 2d 8e bd
       -0.10940165 -0.0049991054 0.1208852 -0.06942207
0001e0 45 46 a1 bc d5 af ff 3d b8 bb 88 3c 7d 4d dd bd
       -0.019686827 0.12484709 0.016691074 -0.10805795
0001f0 cc 6a 0d 3d 49 10 ae bd 6c 41 28 bd f2 01 14 3d
       0.034525678 -0.084992 -0.041078016 0.036134668
000200 54 7f e9 3d 8b d8 18 be 62 9c b2 bd 92 a0 8c bd
       0.11401239 -0.14926355 -0.08721234 -0.06866564
000210 f7 99 b7 bd 4f b4 d3 3d 78 ec d4 3d 00 75 f1 3d
       -0.08964913 0.103371255 0.10396665 0.11789894
000220 56 9e 00 be 28 7e f0 bd 47 e2 04 be 07 d2 ab bd
       -0.125604 -0.117428124 -0.12976943 -0.08389669
000230 46 af b4 3d 81 ec b6 bd 47 82 98 3d 99 db 9a 3d
       0.08822493 -0.08931828 0.074467234 0.07561416
000240 5c 25 36 bc 8c 09 0c 3e 79 3c 6c 3d ac 60 92 3c
       -0.011117306 0.13675517 0.05767486 0.017868362
000250 01 a5 f2 bd 93 d2 6c 3d ea 20 04 be 12 cd 64 3d
       -0.11847878 0.057818007 -0.1290318 0.055859633
000260 bd 4d ce bd 27 79 df bd 13 0e 02 3b 65 db e1 3d
       -0.10073421 -0.1091178 0.0019844815 0.11028174
000270 c8 7f 4e bd b5 71 27 bd 0c 25 9e 3c f0 83 a4 bd
       -0.05041483 -0.040879924 0.019304775 -0.080329776
000280 3e bd e0 3d db a3 98 3d d6 02 43 bd bf bf d1 3d
       0.10973595 0.07453128 -0.047610126 0.10241651
000290 e1 d0 77 bc 34 f8 08 3e 11 a2 a1 bd da cf 18 be
       -0.015125484 0.13375932 -0.0789224 -0.14923039
0002a0 d7 d8 dc 3c 7e dd 80 bc 13 22 5b 3d 87 fb f0 bd
       0.026958866 -0.015730616 0.053499293 -0.11766725
0002b0 c0 bb e3 bc 57 9b db 3d 70 91 19 be 20 72 10 3e
       -0.027799487 0.10722988 -0.14996886 0.14106035
0002c0 d9 a4 b9 bd 27 91 09 be 1f 4e 07 bd 04 ee c0 bc
       -0.09064645 -0.13434277 -0.033033486 -0.023550995
0002d0 34 28 c5 3d 0c 98 f9 3b 48 c4 ec 3d 41 78 8b bc
       0.09626809 0.0076170024 0.11560875 -0.017025115
0002e0 b8 3a f9 3d f0 a0 ed bd 7a b9 c9 3c 7d 17 f6 3b
       0.12169403 -0.11602962 0.024624575 0.0075101242
0002f0 e9 f9 c7 bd 8e c9 5c 3c 32 e1 ea bd 6b ed 91 3c
       -0.097644635 0.013475789 -0.11468734 0.017813405
000300 8f 58 61 3c a8 92 d9 bc f7 4c 89 3d 12 b0 c9 bd
       0.013754024 -0.026559189 0.06704133 -0.09848036
000310 55 18 0b 3d 06 b6 eb bd db 10 0f 3e 31 5d a0 3c
       0.03395875 -0.115093276 0.13971274 0.019575687
000320 a3 6e fd bb ae 90 80 bd 6c 73 04 3d 15 a6 17 be
       -0.007734136 -0.062775955 0.032336637 -0.14809449
000330 38 7e 1d be ee c3 da 3d 2a 40 14 3e b9 56 c8 3d
       -0.1538018 0.10681902 0.14477602 0.09782166
000340 ce ec b5 3d f5 47 22 bb 1d 5d 26 bd af 00 27 3d
       0.088830575 -0.0024762128 -0.040616143 0.040772136
000350 b3 8e cf bd a3 6d 47 3d 3c 00 e8 bd 11 ac 7f bd
       -0.101346396 0.048688542 -0.1132817 -0.062419955
000360 6f c1 1d 3d b0 80 53 bd 50 ce e0 bd 35 a7 e5 3d
       0.03851455 -0.051636398 -0.10976851 0.11213533
000370 be c8 a9 bd eb de 80 bd d9 ba aa 3d ce 53 38 3d
       -0.08290242 -0.06292518 0.083364196 0.045001797
000380 b8 33 ab bd 9d 3f 33 3d 1b d2 dd bc ef d0 9a 3d
       -0.08359474 0.04376184 -0.027077725 0.07559382
000390 cc be 18 be f3 85 01 3e e2 f9 00 3e a3 e6 9e 3c
       -0.14916533 0.12648754 0.12595323 0.019397086
0003a0 c1 ed d0 3d 6d a2 c6 bd 01 47 97 3d 92 1c ec 3c
       0.10201598 -0.09698949 0.0738659 0.028822217
0003b0 9f ab 01 3e f5 ed 1b 3e 5d c2 3d bd f9 37 b8 3b
       0.12663125 0.15227492 -0.046327937 0.005621907
0003c0 31 56 27 bd a2 d2 b4 ba 38 d1 0a be 96 13 c4 bd
       -0.040853683 -0.0013795684 -0.13556373 -0.09574048
0003d0 80 8d 07 3e ef 5a f9 bc ce c6 f2 3d 0b 77 82 3d
       0.13237572 -0.030438868 0.11854325 0.06370362
0003e0 2f 25 e4 3c dc 2b 1d 3d 1c a8 95 bc 8b 67 eb bd
       0.027849762 0.038371906 -0.018268637 -0.11494359
0003f0 3b e7 ea 3d fe f0 9b 3d 6f de d8 3d ce 74 b2 3c
       0.11469885 0.07614325 0.10589301 0.021784212

encoder.layers.0.self_attn.in_proj_bias f4 [192]
000000 8c d5 18 3b 7e fb c0 3a 60 54 f6 3a e2 05 fa ba
       0.0023320643 0.0014723388 0.0018793456 -0.001907524
000010 8b 8e 0f 3b e4 16 01 bb 32 cb ff 3a 53 84 d2 3a
       0.002190503 -0.0019697482 0.0019515513 0.0016061164
000020 d0 61 50 ba b0 2b 1a bb 1e e0 13 39 a8 eb dd ba
       -0.00079491455 -0.0023524575 0.00014102503 -0.0016931193
000030 6f a1 07 3b 13 bf 01 3b 61 e2 07 3b 70 4c 08 bb
       0.0020695587 0.0019797727 0.0020734298 -0.0020797513
000040 1a d4 03 bb 68 9d 03 bb b1 4e 61 3a 19 a6 16 bb
       -0.0020115436 -0.0020082835 0.0008594795 -0.0022987186
000050 81 a5 0a bb 3d b7 87 3a 1a 00 fa 3a 9a fa 16 bb
       -0.0021155777 0.0010354292 0.0019073517 -0.0023037554
000060 a6 02 28 3a 48 28 14 bb a8 36 14 3b 74 4b da 3a
       0.0006409086 -0.0022607017 0.0022615585 0.0016654567
000070 a5 0e 04 bb 3f dd 17 3b ce 7f 50 ba b4 76 b3 ba
       -0.002015033 0.0023172644 -0.00079536147 -0.0013691992
000080 db 23 d1 ba 8f 4a 42 3a 71 ab f5 ba 64 4e d2 ba
       -0.001595612 0.0007411623 -0.001874311 -0.0016045091
000090 db d2 cd ba 62 8a b6 3a df f7 f9 3a c3 d5 a3 3a
       -0.0015703099 0.0013926739 0.0019071064 0.0012499619
0000a0 91 b8 ce 3a 17 78 b9 3a aa 7d 96 ba 6d e1 c6 3a
       0.0015771558 0.001415017 -0.0011481543 0.0015173383
0000b0 41 49 d8 3a ee ff c0 3a cb b4 6c ba 5d 5b 0d bb
       0.0016501324 0.001472471 -0.0009029626 -0.002156935
0000c0 51 08 d3 ba 16 1e d7 3a ce 8a 08 bb 48 fd af 3a
       -0.0016100501 0.0016412165 -0.0020834687 0.0013426924
0000d0 5b d3 08 3b 85 1a f3 ba 01 f6 cd b9 30 7c 0e bb
       0.002087793 -0.0018547332 -0.00039283934 -0.0021741502
0000e0 ce f3 0b 3b bb db 13 3b 8b b9 be ba 2d 55 10 3b
       0.0021355036 0.002256139 -0.0014551146 0.0022023425
0000f0 22 4c ea ba 95 b5 e7 ba 30 22 0d 3b 48 e5 df ba
       -0.0017875473 -0.0017678017 0.002153527 -0.0017081881
000100 dd 1d bf 36 8f ae de 36 c7 c8 48 37 a0 12 d1 b7
       5.69572e-06 6.636437e-06 1.1967676e-05 -2.4923414e-05
000110 6c 93 73 b7 55 c1 b5 b8 17 1e 6f 38 d9 25 45 b7
       -1.4518253e-05 -8.6667635e-05 5.7010064e-05 -1.1750927e-05
000120 93 d8 6a b8 0c 1e d9 36 65 15 53 38 13 50 47 36
       -5.5991648e-05 6.470602e-06 5.0326245e-05 2.969992e-06
000130 61 0c 98 37 c6 d9 8b b8 7a 75 11 38 8a 7c 64 38
       1.8125576e-05 -6.6686e-05 3.4680103e-05 5.4475422e-05
000140 00 68 7b 36 dc c8 f4 b6 14 f1 35 b6 88 ef 42 38
       3.746245e-06 -7.2951498e-06 -2.7111428e-06 4.6476285e-05
000150 be 80 ec 36 05 53 ca b6 ee 10 9c b5 5d d7 17 b8
       7.0483356e-06 -6.029734e-06 -1.1627833e-06 -3.6201778e-05
000160 40 a1 a4 b6 d8 93 40 35 8e c8 3f 38 18 c5 06 37
       -4.906353e-06 7.1740715e-07 4.572473e-05 8.032912e-06
000170 e3 32 dc 36 5c 30 4c 36 e2 a6 1b 35 17 c7 ea 36
       6.562435e-06 3.0426518e-06 5.7984846e-07 6.9969205e-06
000180 3d e6 3a 38 70 a2 c8 37 cf c8 12 37 50 bf 3c b6
       4.4560282e-05 2.3917499e-05 8.7490325e-06 -2.8125542e-06
000190 7c 90 11 b6 b0 fb a5 36 bc 23 03 b8 a8 ac 51 38
       -2.1690785e-06 4.9466835e-06 -3.1266114e-05 4.999028e-05
0001a0 d1 e2 14 37 eb 8c 2c b6 a2 6f 51 37 06 68 88 36
       8.874297e-06 -2.5712022e-06 1.2483362e-05 4.0652258e-06
0001b0 85 6a 1d b8 0f 95 7d 38 97 b5 aa 36 3a 72 82 b7
       -3.753092e-05 6.0458722e-05 5.0875346e-06 -1.5550399e-05
0001c0 24 ab 68 b7 ff 6f 1f b6 55 2c 01 b9 ca af b1 b7
       -1.3868124e-05 -2.3758037e-06 -0.00012318914 -2.1181902e-05
0001d0 d6 c3 68 37 10 2c 5a 37 e3 d2 73 36 f2 9d 8f b7
       1.3873874e-05 1.3004072e-05 3.6332574e-06 -1.7120477e-05
0001e0 9b 7d 04 38 d1 f8 89 36 93 fe 87 37 be d1 61 b8
       3.158823e-05 4.111884e-06 1.62118e-05 -5.3839518e-05
0001f0 82 12 e1 b6 01 22 98 b8 b4 70 b4 b4 91 e1 98 b7
       -6.707677e-06 -7.2542585e-05 -3.3609615e-07 -1.822485e-05
000200 29 1e e0 ba ca 19 04 bb 0e c6 06 bb f5 0e 0a 3b
       -0.0017098832 -0.0020156973 -0.0020564827 0.0021066044
000210 ac 92 f4 3a 42 8e b9 b9 5d 6d 07 3b e2 bc 1b bb
       0.0018659434 -0.0003539194 0.002066455 -0.0023763706
000220 20 6e 10 bb 46 0f 1f 3b 0f 4c 1a bb a6 71 22 3b
       -0.0022038296 0.0024270578 -0.002354387 0.0024786978
000230 a3 c5 1d 3b 4e 43 c4 ba 56 87 cd ba 25 0a 58 ba
       0.00240741 -0.0014973672 -0.0015680592 -0.0008241258
000240 05 7f c5 3a 69 e6 12 3b 1c d7 0f 3b 18 28 0a ba
       0.0015067762 0.0022415167 0.0021948284 -0.00052702567
000250 31 df b2 b9 6c 33 18 bb 1b 64 a6 3a 12 91 07 bb
       -0.00034117096 -0.002322401 0.0012694629 -0.0020685834
000260 2a 23 c4 ba 81 e0 de 3a 8d ba 08 bb c6 ec 19 3b
       -0.0014964093 0.0017004163 -0.0020863146 0.0023487075
000270 c4 94 46 ba 66 6b 13 bb 53 3d 0d 3b b6 c3 13 bb
       -0.00075752684 -0.0022494434 0.0021551445 -0.0022547073
000280 cf a3 00 bb cd 09 0d bb 4c 40 0f bb 44 86 14 bb
       -0.0019628888 -0.0021520734 -0.0021858392 -0.0022663036
000290 9f 49 06 bb 45 0e 15 bb 14 b2 a4 b9 73 1c d6 ba
       -0.002049066 -0.00227441 -0.00031413196 -0.0016335383
0002a0 00 09 16 3b 80 e6 08 bb f3 44 13 bb 5e 3c 02 3b
       0.0022893548 -0.0020889342 -0.0022471517 0.0019872407
0002b0 56 27 0b bb da 3d c8 ba b0 a3 f8 3a f6 8e 0e bb
       -0.0021233163 -0.0015277222 0.0018969681 -0.0021752692
0002c0 d6 ce 62 3a ca e8 f9 ba 0b 85 0a bb 12 d8 f5 3a
       0.0008652037 -0.0019066569 -0.0021136429 0.001875641
0002d0 51 c3 15 bb ee 74 8b 3a b1 a8 0d 3b 8e 38 f2 3a
       -0.0022852013 0.0010639706 0.002161544 0.0018479989
0002e0 3a 4a a9 b9 57 4b 07 bb dd 7e 22 3a d9 36 00 ba
       -0.00032289495 -0.0020644271 0.00061987137 -0.00048909854
0002f0 df ca 0c 3b 97 8d 22 3b b5 ff 06 bb d0 eb 0c 3b
       0.0021483225 0.0024803632 -0.002059919 0.002150286

encoder.layers.0.self_attn.out_proj.weight f4 [64, 64]
000000 b5 7b b5 3d 87 10 c9 bd 1d f0 81 bb 91 3f 81 3d
       0.08861486 -0.098176055 -0.0039653913 0.063109525
000010 98 40 5e 3d cb c6 b4 3c 2c 8d 39 3d 20 48 17 bd
       0.05426082 0.022067448 0.045300648 -0.036934018
000020 e2 6c 8e 3c 2c 80 0b 3d e2 c3 c4 3b 3f d3 80 bc
       0.017385904 0.03405778 0.0060047964 -0.01572573
000030 61 61 a3 3d 5b 11 16 3d 99 d5 40 bd 3a 0b 9a 3d
       0.07977558 0.036637645 -0.047078703 0.075216725
000040 01 5c e3 3a 22 a3 e5 3d 07 1b 8e 3c af 7f d6 bd
       0.0017346145 0.11212756 0.017346872 -0.104735725
000050 64 1e 86 bd bd 64 b0 3d bf c5 89 3d af b1 23 bc
       -0.06548765 0.08612964 0.0672717 -0.009991094
000060 01 bc 66 bc 8f af d7 bd c3 6b 06 3d cf 97 79 3d
       -0.01408291 -0.10531532 0.032817613 0.06093579
000070 d7 80 81 3d 7c 18 d6 3b 39 ff 24 bd 8d 81 69 3c
       0.063234024 0.0065336805 -0.04028246 0.014252079
000080 55 de 0e 3c 45 69 81 bd b3 2a df bd d6 32 07 bd
       0.00872 -0.06318907 -0.10896816 -0.033007465
000090 f2 a4 df bd 34 dc 6e bd 53 74 a6 bd ea 59 90 3d
       -0.10920133 -0.05831547 -0.08127656 0.070484
0000a0 48 7e cf bd a8 e4 7e 3c d5 5a e6 bd 5f 75 f9 3b
       -0.10131508 0.015557446 -0.112477936 0.0076128687
0000b0 72 77 37 bc 72 2a 70 bd fa b5 8a bd b5 59 ae bd
       -0.011197912 -0.05863423 -0.067729905 -0.08513204
0000c0 06 07 bf 3c ab 9a 3b bd c3 f4 bb 3d 5c 71 da 3d
       0.023318779 -0.0458018 0.09177544 0.10666153
0000d0 60 a2 a9 3d 6f 18 e1 3c 48 01 a5 bd b3 7a a1 bd
       0.08282924 0.027477471 -0.08056885 -0.07884731
0000e0 20 2c ee bd e3 3a c0 bd 67 46 23 bd 53 b2 93 bd
       -0.1162951 -0.09386232 -0.039862063 -0.07211747
0000f0 39 c2 01 bc 01 de e3 bd 85 ab 0d 3d 84 83 6e bd
       -0.007919841 -0.11126328 0.034587402 -0.05823089
000100 81 e6 5e 3b a6 de f8 bd a6 81 21 bd 0a 57 c9 bc
       0.0034011903 -0.12151842 -0.039430283 -0.024577636
000110 8d e1 bb 3d ae 84 41 3d b4 2d 94 3d 44 be f0 bd
       0.0917388 0.047245674 0.0723528 -0.1175504
000120 d5 d5 bc bd 83 4e b4 3d 6e 08 cf 3d cb 6a 23 3d
       -0.09220473 0.088040374 0.1010903 0.039896768
000130 15 84 56 bd 89 23 aa 3d 15 f0 92 bd 26 bd 6d bd
       -0.052372057 0.08307559 -0.07174698 -0.058041714
000140 4f 95 0c bd d5 d0 a2 bd 59 67 df 3c dc 39 40 bd
       -0.03432208 -0.07949988 0.02727096 -0.04693018
000150 d2 ce 93 3d f8 40 02 bd aa 6f ef 3c c2 09 d4 bc
       0.07217182 -0.03180024 0.02922805 -0.02588356
000160 ae c6 37 bd 43 ec 4d bd 08 1f 09 3d e7 56 b0 bc
       -0.04486721 -0.050274145 0.03347686 -0.021525813
000170 52 33 c1 3d c6 d1 a3 bd ed 1b c7 bd 65 55 d4 3b
       0.09433617 -0.079989955 -0.09722123 0.0064799064
000180 be 12 91 bd 3b f5 c6 bd 5d 36 5b bc 6f 86 5b 3d
       -0.07083653 -0.09714743 -0.01337966 0.053595003
000190 9f 44 8f 3d 7f 72 bd 3c 57 70 b7 3d bc 86 bf bd
       0.0699551 0.023125885 0.08956974 -0.093518704
0001a0 c1 f7 7a 3d c5 97 9b bd a3 4b 35 3d ad 48 c9 3b
       0.061271433 -0.07597307 0.044261586 0.006142697
0001b0 62 6e 86 bd d0 1d 9b 3d e3 25 98 3d c7 8f ee ba
       -0.065640226 0.07574046 0.07429101 -0.0018200808
0001c0 c2 56 84 bd 60 dd 7a bd 1c 56 e2 bd 28 51 c6 bd
       -0.0646186 -0.061246276 -0.1105158 -0.09683448
0001d0 c9 c8 d6 bc 5c 23 b1 3d e7 6a 2c bd 44 a4 8b 3d
       -0.026218789 0.086493224 -0.042094138 0.068184406
0001e0 94 7a 0d 3d 12 8e b7 3d d5 13 43 bc fb 60 5a 3d
       0.034540728 0.08962645 -0.011906584 0.053315144
0001f0 2a 5e f1 3c f4 49 e0 bd 1d 01 c7 bd 13 06 b1 3c
       0.029463846 -0.109516054 -0.09717009 0.021609342
000200 90 9b 7a 3c 24 22 e1 bd 02 2c c3 bd 3f 7d c0 3d
       0.015295878 -0.1099284 -0.09529878 0.09398889
000210 fc db ac bd c6 98 a3 3d 8f f8 e0 bd bb d3 7f bd
       -0.08440396 0.079881236 -0.10984909 -0.06245778
000220 c6 54 8d bd 33 52 c5 bd e7 30 7f 3d 31 30 9a 3a
       -0.06900935 -0.09634819 0.062302496 0.001176363
000230 3a 37 f2 3d e0 bb 12 bd 71 86 95 bc 5c fe b3 3d
       0.1182694 -0.035823703 -0.018252583 0.087887496
000240 23 ee 7a 3d 2e 71 98 bd 0e 64 c7 3d 91 84 10 bc
       0.06126226 -0.07443462 0.09735881 -0.008820669
000250 df 8e 7e bc a4 82 ec 3d 33 6f a6 bd a8 cf f9 bd
       -0.015536993 0.11548355 -0.08126678 -0.121978104
000260 48 df d6 bd f3 f1 cd bd 87 9a cc bd ef cf c5 bd
       -0.10491806 -0.10055914 -0.09990411 -0.09658801
000270 23 a2 90 3b 12 34 99 3d 37 47 93 3b 2f b0 bf bd
       0.0044138595 0.07480635 0.0044945735 -0.09359776
000280 a7 f6 da 3d 3e f7 7d bd 05 ed d1 bd b7 4f 79 bd
       0.106915765 -0.062003367 -0.10250286 -0.060867038
000290 f8 21 bb bd 85 4c e0 3d 10 a8 ca 3d 1c 68 5d bd
       -0.091373384 0.10952095 0.09895337 -0.054054365
0002a0 06 97 ea 3d 51 91 77 3d 8e 34 f2 bc 54 21 01 3e
       0.11454587 0.06044132 -0.029566076 0.1261037
0002b0 42 7b c2 3d 27 78 9a bc c6 54 bb bd ad 52 cb bd
       0.09496166 -0.018856121 -0.091470286 -0.099278785
0002c0 13 08 f2 3d de 58 89 3d 94 0b 3b bd 81 3d d6 3c
       0.11817946 0.06706403 -0.04566534 0.026152374
0002d0 ca 17 b3 3d d8 66 10 bd 38 ab d1 3d d3 58 4e 3c
       0.08744772 -0.03525433 0.102377355 0.0125944195
0002e0 cb 67 e9 3d 2b ab 49 3b ad 08 9d 3d 2f d8 8e 3d
       0.1139675 0.003077219 0.076676704 0.069748275
0002f0 4f 1d 38 bc 34 9e b9 bc 95 9f eb bd ae 59 da bc
       -0.011237456 -0.022658445 -0.11505047 -0.02665409
000300 f8 18 bb bc 5f ef ca bc a9 46 61 bd 8d aa cb 3d
       -0.022839054 -0.024772344 -0.054999027 0.09944639
000310 b7 75 14 bd e8 37 00 3d 3b 5e e3 3d bd 46 7b 3d
       -0.036245074 0.031303316 0.111019574 0.06134676
000320 d4 cc ac bc 16 24 9a 3c da f5 dc 3d 82 88 f8 bd
       -0.021093763 0.018816035 0.1078908 -0.12135412
000330 84 06 13 bd dc 4a c4 bc 08 98 d5 3d fd 79 89 3c
       -0.035894886 -0.023961477 0.10429388 0.016781801
000340 7b 12 bb bc e8 39 82 3d 87 32 9d 3d 1d 1d db bd
       -0.02283596 0.06358701 0.07675653 -0.10698912
000350 9d 08 a5 bc dd c4 ea bd af a8 81 3d 5e 08 d1 3d
       -0.020145709 -0.1146333 0.06331002 0.10206674
000360 81 1e 87 bd 01 86 47 bd 05 e3 17 bd f1 0e b7 bb
       -0.06597615 -0.04871178 -0.037081737 -0.005586498
000370 e0 c5 ca 3d 96 ab 6b bd fb c3 ed 3c 6c 82 9d 3c
       0.09901023 -0.057536684 0.029024115 0.019227229
000380 fd 98 cd 3d 7d 81 d9 bd ca a7 97 3d 13 4a 58 bc
       0.10038946 -0.10620401 0.0740505 -0.013201254
000390 8f 8c 46 bd f5 2d c5 bd 61 b6 5b 3d 30 b5 2e 3d
       -0.04847389 -0.09627906 0.053640727 0.042653263
0003a0 fb 7f fd bc e7 3b b7 bd dd 33 b5 3d d9 c4 aa 3d
       -0.030944815 -0.08946972 0.08847783 0.08338327
0003b0 e5 31 ad 3d 25 c5 af 3b 1b 3c cf bb 94 54 99 bb
       0.08456782 0.0053640776 -0.006324304 -0.004679272
0003c0 f9 b5 68 3d 52 cf f2 3d cc 0b bf bd 27 13 3d 3d
       0.056814168 0.118559495 -0.09328422 0.046160843
0003d0 be 07 84 3d 9e 45 29 bd 85 70 c3 3d 67 42 f5 bd
       0.06446789 -0.041326158 0.09542946 -0.11975556
0003e0 45 7b d9 bd fc 21 33 3d 60 42 ea bd 16 fc ba bd
       -0.10619215 0.043733582 -0.11438441 -0.09130113
0003f0 dd ea 6f 3c 09 dd cc bd 0e 69 77 3c 0d 28 f0 bc
       0.014643398 -0.100030966 0.015100731 -0.029315973

encoder.layers.0.self_attn.out_proj.bias f4 [64]
000000 e1 67 65 ba 89 3f 0e 3b 12 c2 05 3b 47 1c 16 bb
       -0.0008751136 0.002170535 0.0020409864 -0.0022905038
000010 aa f7 0b bb 53 17 08 bb 4d b2 19 bb b4 95 da 3a
       -0.0021357336 -0.0020765855 -0.0023452223 0.0016676695
000020 ea ad 1a 3b 73 19 19 bb b4 32 f4 3a 54 4a 0b 3b
       0.0023602196 -0.0023361116 0.0018630833 0.002125402
000030 9e a6 09 3b 5e ed f7 3a 8a b9 00 3b c8 25 df ba
       0.0021003853 0.0018915345 0.001964184 -0.001702481
000040 28 fa 0f 3b 48 6b 0b bb b0 7d 02 bb 9f 5d e6 3a
       0.0021969173 -0.0021273661 -0.0019911341 0.0017575509
000050 b6 96 09 3b a8 c3 ed 3a 06 8f a8 3a 07 48 b6 ba
       0.0020994372 0.0018139975 0.0012860007 -0.0013906964
000060 aa f4 08 3b a4 b3 11 3b 83 9e 11 bb ab a3 23 3a
       0.0020897784 0.0022232318 -0.0022219724 0.0006242345
000070 63 20 07 3b ff 7f 05 bb 0b 1c 05 3b 55 be 08 bb
       0.002061867 -0.002037048 0.0020310904 -0.00208654
000080 31 75 c2 ba 1f 83 13 3b a0 d3 1f 3b 78 20 0a bb
       -0.0014835951 0.0022508574 0.0024387613 -0.0021076482
000090 e0 53 41 39 6d bc 19 3b f9 79 eb ba e4 e4 2d ba
       0.0001843716 0.0023458258 -0.0017965428 -0.00066335336
0000a0 99 33 32 3a 1b f5 0f 3b c5 f8 fd ba 9f f4 10 bb
       0.000679785 0.0021966163 -0.0019376507 -0.0022118462
0000b0 d9 d7 cc 3a ab f2 96 3a 4d cb fb 3a c2 80 1c bb
       0.0015628292 0.0011516412 0.0019210369 -0.0023880457
0000c0 38 1c 19 bb 10 a4 f2 3a 47 9a 0c bb af c7 12 bb
       -0.0023362767 0.0018512029 -0.002145426 -0.0022396853
0000d0 04 45 0e bb b6 69 e1 3a eb 4c 0d bb 4c a1 0d 3b
       -0.0021708617 0.0017197642 -0.002156074 0.0021611033
0000e0 1c fa df 3a 1d 32 0a 3b fb 9a ab 3a cc 0f 01 bb
       0.0017088088 0.0021086999 0.0013092452 -0.0019693254
0000f0 68 68 84 3a 97 e6 e2 ba a7 f0 20 3b f8 d7 ce 3a
       0.0010101916 -0.0017311153 0.0024557502 0.0015780916

encoder.layers.0.linear1.weight f4 [256, 64]
000000 b2 7a cf 39 bc b5 f0 bd 11 80 18 bc e7 23 0f 3c
       0.00039573532 -0.11753413 -0.009307877 0.008736587
000010 de 51 d8 bd 08 1a cd bd 00 6b a3 3d 53 14 80 3d
       -0.1056249 -0.10014731 0.07979393 0.062538765
000020 d0 d4 76 3d 2a bb be bd 32 a8 ef bd 95 a3 a9 bd
       0.060261548 -0.093130425 -0.117020026 -0.08283154
000030 d9 df 6d bd 1c 9c 09 3d 50 1c bd bd 83 0a ac 3d
       -0.058074806 0.033596143 -0.09233916 0.084004425
000040 66 ef d5 bb a0 a0 14 bd 87 5b 90 3d 7f 9f 8d 3d
       -0.0065287827 -0.036285996 0.070487075 0.06915187
000050 38 8b 61 bc fe 13 21 3d 2d f5 ee 3d 4c 30 6d bd
       -0.0137661025 0.039325707 0.11667857 -0.057907388
000060 40 e4 9b bc 23 93 68 bc 7a 24 c8 3d 81 d1 28 bd
       -0.019029737 -0.014195236 0.09772582 -0.041215423
000070 ce f1 b4 3d b5 89 cf bb dd 02 0f 3d 51 cb a6 3c
       0.08835183 -0.0063335546 0.03491484 0.02036062
000080 b8 61 b2 3c 17 bf 11 3d 19 76 23 bd f2 a8 e7 3d
       0.021775112 0.035582628 -0.03990755 0.11311521
000090 93 2d 2e 3d 8e f5 de 3d 60 42 4a 3d 4a d9 eb 3d
       0.04252393 0.108866796 0.049379706 0.11516054
0000a0 df 19 e3 3d 71 c8 c4 3d bc 6e 66 bc 68 11 ec 3d
       0.11088919 0.09608544 -0.014064487 0.115267575
0000b0 66 5b fa 3d f2 2e 96 3d 60 04 58 bd 41 0a 12 3c
       0.12224464 0.07333173 -0.052738547 0.0089135775
0000c0 b5 a7 ce 3d 80 7b d9 bd 7e 36 9c 3d 3a 15 e1 bd
       0.10090581 -0.10619259 0.07627581 -0.10990377
0000d0 7d 68 ad 3d bc 5d a1 3d 4d 58 bc bd cd aa c2 bc
       0.08467195 0.078792065 -0.091965295 -0.023763085
0000e0 6d 9f 1f bc b2 5c 18 bc f3 6e c6 3d 1d 24 cb 3d
       -0.0097426 -0.009299444 0.09689131 0.099189974
0000f0 c9 14 4d 3c 41 00 43 3c 63 e2 d9 3d b5 e6 b4 bb
       0.012517163 0.011901916 0.10638883 -0.0055206665
000100 0c 65 d5 bd 29 f3 bb 3d 06 4d da bd 74 75 69 3d
       -0.10419664 0.091772385 -0.10659222 0.056996778
000110 52 f9 b0 bd 85 01 a0 3d 43 7b ce 3c a6 55 01 be
       -0.08641304 0.0781279 0.02520526 -0.12630329
000120 06 5e d0 bd f1 98 1a 3c b7 ee b6 3d 1f 1c 58 3d
       -0.101741835 0.009435878 0.0893225 0.052761193
000130 ba 67 d8 bb a6 27 19 3d 0f 42 f6 3d 86 1f 98 3d
       -0.006604162 0.037391327 0.120243184 0.074278876
000140 f8 0c c8 3d 23 71 d5 ba 3e 12 f5 3d f2 14 d2 3b
       0.097680986 -0.0016284328 0.1196637 0.0064111883
000150 57 cf 44 bb 59 aa 85 3d 00 13 5c bd 03 18 33 bc
       -0.003003081 0.06526632 -0.053729057 -0.010931018
000160 86 a7 96 bd c4 94 3a 3d 6f fa a6 bd 5f 6a 28 bd
       -0.07356171 0.04555203 -0.08153235 -0.04111707
000170 d0 ad ff bd 9f c9 3e 3d 90 75 55 bd 2f a0 e3 bb
       -0.12484324 0.046579 -0.05211407 -0.0069465856
000180 cf 8c be 3d 7f 7b 8e 3c 75 ea e7 3c 33 7c 5d 3d
       0.09304201 0.017392872 0.02831004 0.054073524
000190 0a a1 d5 bd ac f7 a8 3d e6 dd e7 3d e7 38 ca bd
       -0.104311064 0.08250365 0.11321621 -0.098741345
0001a0 1c 92 cf bd 3c 7e da bd e8 a3 b9 bd 01 38 ba 3d
       -0.1013529 -0.106686085 -0.09064466 0.09092713
0001b0 c1 98 66 bd 16 7d ff bd 20 e6 eb 3c d1 55 03 bd
       -0.05629802 -0.1247503 0.028796256 -0.032064263
0001c0 19 50 ba 3d b8 98 8e bc a3 e3 d4 3d 3b 9f 2d 3d
       0.09097309 -0.017406806 0.10394981 0.042388182
0001d0 a9 b8 58 bd 6c bc 93 bd ae 19 87 bd 66 30 9e bb
       -0.05291048 -0.07213673 -0.06596695 -0.004827547
0001e0 5d 26 95 bb 90 dc 90 3b 9d b4 cb bd dd a5 53 ba
       -0.0045516924 0.0044208243 -0.099465586 -0.0008073727
0001f0 9d 2c 80 3d 0f 31 cc bd 8e 0c eb bb 6e af 37 3c
       0.06258509 -0.09970295 -0.0071731275 0.011211259
000200 48 14 e8 bd 85 55 b0 bd d4 7c 43 3c a5 d5 05 bc
       -0.11331993 -0.086100616 0.011931617 -0.008168613
000210 f3 7d d4 3c 61 dd ca bd 03 e1 db bb d3 f7 32 3d
       0.025938964 -0.09905506 -0.006710173 0.043693375
000220 09 24 c0 3d cf fb a7 3c 39 3d e1 bd 77 80 a1 bd
       0.09381873 0.020505814 -0.109980054 -0.07885831
000230 6b f1 ec 3d 71 cb 21 3d f9 04 46 3c a2 e6 95 3c
       0.11569484 0.039500657 0.0120861465 0.01829845
000240 d5 9a 46 3d e3 f0 35 bd 29 a9 ba 3d bf 74 88 bd
       0.048487503 -0.04441918 0.09114296 -0.066628926
000250 64 de bf 3c cc 3f 92 bd 59 ea 90 3c e0 43 a4 3d
       0.023421474 -0.071410745 0.01768987 0.08020759
000260 5c 85 88 3c ae 28 b8 bd 6d 21 c8 3d cf 4e 4b b9
       0.016665153 -0.08992134 0.097720005 -0.00019388947
000270 ff 6f 81 bd 26 40 c6 3d ef 3d a0 3d 24 2d b9 3d
       -0.0632019 0.09680204 0.07824313 0.09041813
000280 08 7c e3 bc c1 df cc 3b d7 10 a8 3c f7 c2 17 bc
       -0.027769104 0.0062522595 0.020515842 -0.009262792
000290 4b 48 2c bd 32 f9 a3 3d 5f 11 95 3d 7f 96 f7 bd
       -0.04206113 0.080065146 0.07278704 -0.12089252
0002a0 16 8e b7 bd bf 99 42 3d 44 3c bf 3c 51 92 d3 bb
       -0.089626476 0.047509905 0.023344167 -0.0064566513
0002b0 34 bf be 3d 6f 2b 00 3e 08 c0 d2 bc a8 66 6d 3d
       0.09313813 0.12516569 -0.025726333 0.05795923
0002c0 22 70 ae b9 5b c5 a4 bc 1c be 97 bd 90 64 d7 3d
       -0.00033271412 -0.020113638 -0.07409307 0.10517228
0002d0 8e b9 43 bd 82 35 77 3d b1 36 72 3d 5f 5a e6 bd
       -0.04778438 0.060353763 0.05913419 -0.11247706
0002e0 ce 0c 97 bc 3d 4e 9b bc 0e c9 98 bd 6c b4 fb bd
       -0.018438723 -0.018958205 -0.07460223 -0.12290272
0002f0 d1 a4 c9 bd 57 db 2d bd fa 0f 88 3c 4e ea b0 3d
       -0.09845889 -0.042445507 0.01660918 0.0863844
000300 99 17 b9 bd b0 18 7a 3d 4c 53 f5 3d ef 3e 1a 3d
       -0.09037704 0.0610587 0.11978778 0.037657674
000310 e7 3b d3 bd 27 ec e1 bd 3b fc e0 3d fb 32 c5 bc
       -0.1031416 -0.110313706 0.10985609 -0.024072161
000320 51 51 83 bc 0d 2f 18 3d 3f 22 a3 bd d8 c0 c4 3d
       -0.016029986 0.037154246 -0.07965516 0.096070945
000330 a2 34 31 3d ed 98 ec bd d6 86 d5 bc a5 d0 2a 3d
       0.043263085 -0.11552606 -0.026065271 0.041702885
000340 f0 e2 0d 3d 6c f5 c2 3d 0d 20 d9 bd ce f8 15 3c
       0.034640253 0.09519467 -0.10601816 0.009153558
000350 67 64 d0 bd 22 05 e0 bd be 45 cc bd d1 3c 4d bd
       -0.101754 -0.10938479 -0.0997424 -0.050106827
000360 26 24 de bd 30 24 07 3d cf e6 dd bd 76 d4 df bd
       -0.108467385 0.032993495 -0.10835039 -0.109291956
000370 4e e6 90 3d 9a 50 29 bd 4c 19 b9 bd 11 bb 83 3c
       0.07075177 -0.041336633 -0.09038028 0.016080411
000380 a7 51 6f bd 99 cb fa 3d 12 65 61 3c 39 ef 39 bd
       -0.05842748 0.122458644 0.013757007 -0.045394156
000390 b8 b0 dd bd 5b 5a 34 3d 77 b8 84 3d f2 32 03 3d
       -0.10824722 0.044031482 0.064804964 0.032031007
0003a0 0d fe 73 3d 25 ae bc bd f3 60 84 3d 4a 3b 7a bd
       0.059568454 -0.09212903 0.06463804 -0.0610917
0003b0 36 42 93 3d 95 7b b6 bd 40 45 8d 3c f1 a9 a5 bd
       0.07190363 -0.0891029 0.017244935 -0.080890544
0003c0 24 ca 4a bd 99 44 ba 3d d0 dd 48 bd 4c 67 76 3b
       -0.049509183 0.09095115 -0.049039662 0.003759819
0003d0 a9 17 ec 3d 09 0d a5 3d 6a 0c 7a bc 00 97 93 bc
       0.1152795 0.08059127 -0.015261749 -0.018016338
0003e0 bf 90 b7 bd 20 89 b8 bd fd 97 0b bd f6 a4 69 bd
       -0.08963155 -0.090105295 -0.034080494 -0.057042085
0003f0 de 71 37 bd 77 94 84 bd d3 8e fb 3d 6b b4 ae 3d
       -0.044786327 -0.0647363 0.12283101 0.08530506
