models/teacher_tx_tae.pt (torch, 885169 bytes, 56 tensors)

input_proj.weight f4 [64, 5]
000000 e7 70 5a 3e 55 39 9f 3e f8 9a c4 be 08 e4 83 be
       0.21332131 0.31098428 -0.38399482 -0.25759912
000010 b2 f3 8f 3d 6c fd aa be 82 31 58 be 8b 30 e2 3e
       0.07028903 -0.3339647 -0.21112636 0.4417766
000020 f1 ec de 3d 94 a6 e2 bd af 74 d7 bd 6c f6 dd 3e
       0.10885037 -0.110669285 -0.105203025 0.43352067
000030 5b d5 a8 bc 28 6c 5a 3e f7 b8 c2 3e c7 5d 10 bc
       -0.020609548 0.21330321 0.38031742 -0.008811421
000040 b4 f4 0c bd 19 db 6e be 64 c2 d7 be 44 ce 37 be
       -0.034413055 -0.23325767 -0.42140496 -0.17949778
000050 9e 64 41 be 1e 0d c2 be a1 92 de 3e 30 16 f2 bd
       -0.18886039 -0.37900633 0.43471244 -0.11820638
000060 7f d5 44 be 3d 6d e2 3d 49 ec 6e be 4f 9e 68 3d
       -0.19222067 0.11055992 -0.23332323 0.0567916
000070 ea ab cf be d4 06 ad 3d 9f 64 50 3e 9f 33 ca be
       -0.40560848 0.08448568 0.20350884 -0.3949251
000080 df 75 c8 be 0b 8b 9d 3e 56 d9 57 be f3 3e 79 3e
       -0.39152429 0.30770144 -0.21079001 0.2434042
000090 9b bb 7d be 6c 83 bd 3e 1e c1 d6 bd d3 14 44 bd
       -0.24778597 0.3701433 -0.10486053 -0.047871422
0000a0 90 37 ab 3e 4d 0c 09 be f0 79 d9 3d 80 5a 31 3e
       0.33440828 -0.13383599 0.10618961 0.1731968
0000b0 20 e7 f5 3d f2 91 9d be 78 e6 7e 3e 6c ab 0c bd
       0.12006974 -0.3077541 0.24892604 -0.03434317
0000c0 ef 20 5c 3d ab c5 57 be 2e c0 03 3c 44 e3 cd 3d
       0.053742345 -0.21071498 0.008041425 0.10053113
0000d0 77 73 7f be 76 8b 21 be b0 9d 6a 3e f1 11 b5 be
       -0.2494639 -0.15775856 0.22911716 -0.3536525
0000e0 d2 68 46 be d0 ca 72 3e ef 62 27 3e 19 b3 b3 be
       -0.19375923 0.2371018 0.16346334 -0.35097578
0000f0 41 94 53 be ed be ca be a0 29 a4 bd 68 92 d2 3e
       -0.20662023 -0.3959879 -0.08015752 0.41127324
000100 1d 04 8d be 4b 88 32 be 5f ff e1 3d 25 e8 df be
       -0.275422 -0.17434804 0.11035036 -0.437318
000110 fe 28 1b be 7f 4b 4b be 18 e7 dd be f7 7f 58 3d
       -0.15152356 -0.19853018 -0.43340373 0.05285641
000120 0d 3f e0 be 81 58 cb 3e 5a 94 91 be 67 5e d4 3d
       -0.43798104 0.3971596 -0.28433496 0.10369568
000130 ec 0e 95 bd b2 5d 62 be 44 a0 1c bd 67 f1 ce bd
       -0.07278237 -0.22106054 -0.03823878 -0.101046376
000140 4e 14 35 be 93 8e eb 3d 0d a1 aa 3e 5e b7 80 3e
       -0.17683527 0.11501803 0.33325997 0.25139898
000150 23 a9 e4 be 89 62 83 3d 40 db b3 3d 0b 42 d8 3e
       -0.4466029 0.064152785 0.08782053 0.42237887
000160 c7 1d 3b 3e ec c3 26 be a4 2c b6 be a3 4c 1f be
       0.18273078 -0.16285676 -0.35580933 -0.15556578
000170 a3 1d 35 3e 23 80 5b bd 7a f6 89 3e 18 c6 34 be
       0.17687087 -0.053588998 0.2694586 -0.17653692
000180 a6 91 b1 3d 57 0a 3b 3e 39 72 37 3e 0c d3 27 3e
       0.08670358 0.18265663 0.17914666 0.16389102
000190 8b ee 42 bd 09 14 45 bd 9f fb 55 3d bc 1d 87 3e
       -0.047590774 -0.04811481 0.052241918 0.26389873
0001a0 e3 72 6a 3d 0e 35 a5 3e 32 63 88 3e b4 f9 27 be
       0.05723847 0.3226704 0.2663818 -0.16403848
0001b0 f6 00 36 be bf 05 bb be 94 44 24 be 6a 57 70 3e
       -0.17773804 -0.3652782 -0.16041785 0.23470846
0001c0 fb 8c 9e be 06 30 af 3c 62 88 d9 3e 24 da c1 3e
       -0.30966935 0.021385204 0.42486864 0.3786174
0001d0 97 18 71 bd c6 89 de be d6 cd 3b bd 89 fb 47 be
       -0.05886134 -0.43464488 -0.045850597 -0.19529547
0001e0 d7 b0 6a 3d 54 7f 78 be a4 04 2c 3d 72 58 ff 3d
       0.057297554 -0.24267322 0.041996613 0.124680415
0001f0 37 56 e6 3c 91 48 ba bd 12 b6 d1 be b2 5f 2c be
       0.028117282 -0.09095872 -0.4095922 -0.1683338
000200 ee 62 09 3e af a3 21 3e 83 07 2a be 66 39 1c bd
       0.13416645 0.15785097 -0.16604428 -0.038140677
000210 2b 9e 1a 3e 21 97 49 be e9 87 47 3d fe 80 ce 3c
       0.15099399 -0.19686557 0.0487136 0.025207993
000220 3b 95 ba 3e 13 6d 87 be b0 80 c6 bb ef 22 ed 3d
       0.3644198 -0.26450405 -0.006057821 0.11578929
000230 13 dc 67 bd 9d 00 b9 be 9f 99 ab bd 51 7f 1a be
       -0.056606364 -0.3613328 -0.0837891 -0.1508763
000240 8c 93 d6 bd 8e 60 26 3e e1 3f ae 3e bd 05 c1 3e
       -0.10477361 0.1624777 0.3403311 0.3769969
000250 9d ea c9 3e 68 32 6e 3d d4 f8 c0 bc 55 51 8a be
       0.39436808 0.05815354 -0.02355615 -0.27015176
000260 0a 61 20 3e 25 5d f3 bd a4 f4 1f 3e e4 aa d3 be
       0.15662017 -0.11883 0.15620667 -0.41341317
000270 55 55 a6 3e 6c fa db b9 e0 5a 5d be 62 0b 2e 3e
       0.32486978 -0.00041957514 -0.21616697 0.1699653
000280 09 ca b3 3e f4 3c 4f be be cc da 3e 25 7a 9d 3e
       0.35115078 -0.20238096 0.4273433 0.3075725
000290 1d 46 e8 bd 51 91 f2 3d 98 98 c5 be f1 f8 a7 3e
       -0.11341498 0.11844123 -0.38592982 0.32807115
0002a0 17 8d 48 3e 26 fb b7 3e a5 c8 77 bd ef 87 f2 bd
       0.19585072 0.359338 -0.060494084 -0.118423335
0002b0 e8 44 bf be a6 9b d5 3e ec d1 ba be aa 82 96 be
       -0.3735726 0.41720313 -0.36488283 -0.29396564
0002c0 fe 06 5d 3e 9b 1d 1e bd c3 ec 54 3e 5c f9 d5 3e
       0.21584699 -0.038602453 0.20793442 0.4179181
0002d0 f3 38 52 be 99 2f 1d 3e ad c9 b9 3e ae 61 a1 3d
       -0.20529537 0.15350188 0.3628668 0.07879959
0002e0 64 45 c7 3d 6e f9 cf 3d c6 a4 ab bd 68 ee 75 3e
       0.09730032 0.10154997 -0.083810374 0.24016726
0002f0 c7 a0 80 be c0 db c1 3c 9f 73 81 bd 2c 1b c1 be
       -0.25122663 0.023664355 -0.06320881 -0.37716043
000300 6d 49 61 3e 21 15 d1 3e b0 5a 22 be 41 95 99 be
       0.22000666 0.40836433 -0.15854907 -0.29996684
000310 0e 62 9a bc 5a bf 11 3e 35 f4 ca be fc 2f df 3e
       -0.018845584 0.14233151 -0.3963944 0.43591297
000320 92 bd 94 3e ca b1 78 3e b2 42 f9 bd eb 1c c6 3e
       0.2905088 0.24286571 -0.12170924 0.38693938
000330 1a 23 96 be 33 9f bd 3e 7d 93 4a be b5 66 a7 3e
       -0.29323655 0.37035522 -0.19782825 0.32695547
000340 36 27 ad be 1a 8d 54 bd b0 22 d7 3e e3 b6 44 be
       -0.33818978 -0.051892377 0.42018652 -0.19210391
000350 a2 13 28 be 60 dc 93 3e 34 21 e2 3e e8 c4 ac 3e
       -0.1641374 0.2887907 0.44165957 0.33743978
000360 37 6c 84 be bd a8 cb 3e f4 5d 3f 3e 0b 80 ae be
       -0.2586381 0.39777175 0.18688184 -0.34082064
000370 b4 0d 92 be 38 b8 56 3d f1 0c 41 3e f2 09 82 3e
       -0.2852608 0.05242178 0.18852593 0.25398213
000380 a8 e5 b0 3e f8 d4 a4 3e 28 ae c5 3e 4e c1 74 bd
       0.34550214 0.32193732 0.38609433 -0.059754662
000390 31 33 d0 3e 17 b1 f5 3d cd a6 a8 3e cb 01 5d 3e
       0.40664056 0.11996668 0.3293976 0.21582715
0003a0 7f 16 40 3e 7d 37 d4 3e 38 d8 c0 3e f8 fd ad 3e
       0.18758582 0.41448584 0.37664962 0.33982825
0003b0 68 3c 03 3e 9e af 65 be 77 61 3f 3e 0c 63 3c 3e
       0.12816012 -0.22430274 0.18689524 0.18397158
0003c0 07 66 fb bd c0 f8 c7 3e 6c a6 a8 bc 3c 9a 62 3e
       -0.122753195 0.3905697 -0.020587169 0.22129148
0003d0 91 01 e1 3e 12 a3 a2 3e 89 a2 a2 3e 1c 70 9c be
       0.43946508 0.31765038 0.3176463 -0.30554283
0003e0 3f 15 a1 3c cd a8 9d be 9e 10 05 3e 89 f9 fa 3d
       0.019663451 -0.30792847 0.1299462 0.12254626
0003f0 26 3e 69 bb cf 1c c0 3e 48 bf 08 3e c1 94 f7 bd
       -0.0035590022 0.3752198 0.13354218 -0.120889194

input_proj.bias f4 [64]
000000 c5 ff c2 bd 96 e5 3c 3d 6a 7e c0 be 76 d7 33 be
       -0.095214404 0.046117388 -0.37596446 -0.1756266
000010 e9 32 c1 be 95 a5 b4 3d 00 cc db be d2 30 80 3e
       -0.37734154 0.08820645 -0.42929077 0.25037247
000020 c2 43 b6 3e 3f 15 af be de d0 d4 3d 8b ec 1c be
       0.3559857 -0.34195897 0.10391401 -0.15324609
000030 b6 88 c3 be ec 49 9e 3e ac af 61 be f7 37 1f bd
       -0.3819024 0.30915773 -0.2203967 -0.03887173
000040 1c 93 19 3e c8 ff c3 be 8d 21 d5 be 9c 91 9c 3e
       0.14997524 -0.38281083 -0.4162716 0.3057984
000050 63 be 91 3e 1a 4f ce 3d 18 6f c3 3e a7 6e e2 be
       0.28465566 0.10073681 0.38170695 -0.44225046
000060 51 e0 38 3d e9 f3 a3 bd 5d c8 b7 3e 2f c1 f2 3d
       0.0451358 -0.080055065 0.35895053 0.11853253
000070 b9 8d a2 bc af 3b 87 bc 24 78 5b be e7 0d 93 be
       -0.01984297 -0.016507952 -0.21432549 -0.28721544
000080 aa 63 23 be ca 58 f6 bd 10 64 7d be ac 36 d7 3e
       -0.15955988 -0.12028654 -0.24745202 0.420339
000090 13 a3 8b 3e 95 8d 7d 3e 29 5d 46 3d 3c a1 cd 3e
       0.27272853 0.2476104 0.04842869 0.40162075
0000a0 05 f8 a4 3e 68 c6 50 be e8 8a 8d 3e 63 8d 3b be
       0.32220474 -0.20388186 0.2764504 -0.18315654
0000b0 96 20 64 be 1f 8d d2 3e 75 c3 43 3e fb 67 cc 3e
       -0.22278056 0.41123292 0.1911753 0.3992308
0000c0 df 12 eb bd 18 aa 33 3e 55 ae a9 be e3 9e b0 3e
       -0.11478209 0.17545354 -0.33140817 0.3449622
0000d0 7c 2b 44 be 71 61 6c bd e2 1c 67 3e 77 1f 21 bd
       -0.19157213 -0.057710115 0.22569612 -0.039336648
0000e0 78 1a 4b be e7 44 c6 3e 03 df 91 be fb 71 06 3e
       -0.19834316 0.38724443 -0.28490457 0.13129418
0000f0 55 fe 97 3e ed 9e 76 3e 43 4e f9 3d bf 2d da be
       0.29686227 0.24084063 0.1217313 -0.42613026

pos.pe f4 [1, 110, 64]
000000 00 00 00 00 00 00 80 3f 00 00 00 00 00 00 80 3f
       0.0 1.0 0.0 1.0
000010 00 00 00 00 00 00 80 3f 00 00 00 00 00 00 80 3f
       0.0 1.0 0.0 1.0
000020 00 00 00 00 00 00 80 3f 00 00 00 00 00 00 80 3f
       0.0 1.0 0.0 1.0
000030 00 00 00 00 00 00 80 3f 00 00 00 00 00 00 80 3f
       0.0 1.0 0.0 1.0
000040 00 00 00 00 00 00 80 3f 00 00 00 00 00 00 80 3f
       0.0 1.0 0.0 1.0
000050 00 00 00 00 00 00 80 3f 00 00 00 00 00 00 80 3f
       0.0 1.0 0.0 1.0
000060 00 00 00 00 00 00 80 3f 00 00 00 00 00 00 80 3f
       0.0 1.0 0.0 1.0
000070 00 00 00 00 00 00 80 3f 00 00 00 00 00 00 80 3f
       0.0 1.0 0.0 1.0
000080 00 00 00 00 00 00 80 3f 00 00 00 00 00 00 80 3f
       0.0 1.0 0.0 1.0
000090 00 00 00 00 00 00 80 3f 00 00 00 00 00 00 80 3f
       0.0 1.0 0.0 1.0
0000a0 00 00 00 00 00 00 80 3f 00 00 00 00 00 00 80 3f
       0.0 1.0 0.0 1.0
0000b0 00 00 00 00 00 00 80 3f 00 00 00 00 00 00 80 3f
       0.0 1.0 0.0 1.0
0000c0 00 00 00 00 00 00 80 3f 00 00 00 00 00 00 80 3f
       0.0 1.0 0.0 1.0
0000d0 00 00 00 00 00 00 80 3f 00 00 00 00 00 00 80 3f
       0.0 1.0 0.0 1.0
0000e0 00 00 00 00 00 00 80 3f 00 00 00 00 00 00 80 3f
       0.0 1.0 0.0 1.0
0000f0 00 00 00 00 00 00 80 3f 00 00 00 00 00 00 80 3f
       0.0 1.0 0.0 1.0
000100 a4 6a 57 3f 41 51 0a 3f ce 7a 2e 3f b0 54 3b 3f
       0.84147096 0.54030234 0.68156135 0.731761
000110 ba 7d 08 3f 0d 94 58 3f f0 90 d1 3e c7 92 69 3f
       0.53316844 0.8460091 0.4093089 0.9123959
000120 3e 39 9f 3e 6b 4e 73 3f 25 8f 70 3e f1 d5 78 3f
       0.3109836 0.9504153 0.23492105 0.9720145
000130 3a 23 35 3e 83 f6 7b 3f f3 25 08 3e 28 ba 7d 3f
       0.17689219 0.9842302 0.13295726 0.99112177
000140 76 75 cc 3d 98 b8 7e 3f 36 6f 99 3d d1 47 7f 3f
       0.099833414 0.9950042 0.07491915 0.9971896
000150 ae 36 66 3d 68 98 7f 3f fa ac 2c 3d bd c5 7f 3f
       0.05620449 0.9984193 0.04215715 0.999111
000160 5b 81 01 3d 3c df 7f 3f a5 3e c2 3c 93 ed 7f 3f
       0.031617504 0.99950004 0.023711512 0.99971884
000170 42 ab 91 3c a3 f5 7f 3f 49 7a 5a 3c 2c fa 7f 3f
       0.017781857 0.99984187 0.013334819 0.99991107
000180 57 d6 23 3c b9 fc 7f 3f 16 b9 f5 3b 28 fe 7f 3f
       0.009999833 0.99995 0.0074988706 0.99997187
000190 5a 44 b8 3b f7 fe 7f 3f 5a 2e 8a 3b 6b ff 7f 3f
       0.0056233825 0.9999842 0.0042169513 0.9999911
0001a0 1c 3e 4f 3b ac ff 7f 3f 03 69 1b 3b d1 ff 7f 3f
       0.0031622713 0.999995 0.0023713715 0.9999972
0001b0 20 15 e9 3a e6 ff 7f 3f 8a c9 ae 3a f1 ff 7f 3f
       0.0017782785 0.99999845 0.001333521 0.9999991
0001c0 6d 12 83 3a f8 ff 7f 3f 89 94 44 3a fb ff 7f 3f
       0.0009999998 0.9999995 0.000749894 0.9999997
0001d0 13 6a 13 3a fd ff 7f 3f 21 17 dd 39 ff ff 7f 3f
       0.0005623411 0.9999998 0.00042169637 0.99999994
0001e0 61 cb a5 39 ff ff 7f 3f 0d a8 78 39 00 00 80 3f
       0.00031622782 0.99999994 0.00023713727 1.0
0001f0 53 77 3a 39 00 00 80 3f 6d d4 0b 39 00 00 80 3f
       0.00017782794 1.0 0.00013335208 1.0
000200 b7 c7 68 3f 33 11 d5 be d9 5a 7f 3f 53 4d 91 3d
       0.9092974 -0.41614684 0.99748 0.070948265
000210 0a f2 66 3f b2 e8 dc 3e 11 35 3f 3f 03 39 2a 3f
       0.9021307 0.43146282 0.7469035 0.6649324
000220 1b 54 17 3f ec 7b 4e 3f b5 d3 e9 3e 69 be 63 3f
       0.5911271 0.8065784 0.45669332 0.8896242
000230 f6 47 b2 3e a6 fa 6f 3f 82 f0 86 3e f5 f2 76 3f
       0.34820527 0.93741834 0.26355368 0.96464473
000240 f8 6f 4b 3e a5 e5 7a 3f d3 00 19 3e 4f 20 7d 3f
       0.19866931 0.9800666 0.1494172 0.98877424
000250 86 d9 e5 3d f3 61 7e 3f ae 85 ac 3d 0e 17 7f 3f
       0.1122313 0.9936821 0.08423935 0.99644554
000260 c8 70 81 3d f9 7c 7f 3f aa 30 42 3d 4e b6 7f 3f
       0.063203394 0.9980007 0.04740969 0.9988755
000270 5c a5 11 3d 8e d6 7f 3f 50 75 da 3c b1 e8 7f 3f
       0.03555809 0.9993676 0.026667267 0.99964434
000280 3e d4 a3 3c e5 f2 7f 3f 51 b7 75 3c a1 f8 7f 3f
       0.019998666 0.9998 0.014997319 0.9998875
000290 9b 43 38 3c db fb 7f 3f 0a 2e 0a 3c ab fd 7f 3f
       0.011246587 0.99993676 0.008433828 0.9999644
0002a0 d8 3d cf 3b b1 fe 7f 3f e7 68 9b 3b 43 ff 7f 3f
       0.006324511 0.99998003 0.00474273 0.99998873
0002b0 08 15 69 3b 96 ff 7f 3f 7f c9 2e 3b c4 ff 7f 3f
       0.0035565514 0.9999937 0.0026670394 0.9999964
0002c0 68 12 03 3b df ff 7f 3f 85 94 c4 3a ed ff 7f 3f
       0.0019999985 0.99999803 0.0014997876 0.99999887
0002d0 12 6a 93 3a f5 ff 7f 3f 1f 17 5d 3a fa ff 7f 3f
       0.0011246821 0.99999934 0.0008433926 0.99999964
0002e0 60 cb 25 3a fd ff 7f 3f 0c a8 f8 39 fe ff 7f 3f
       0.0006324556 0.9999998 0.0004742745 0.9999999
0002f0 53 77 ba 39 ff ff 7f 3f 6d d4 8b 39 00 00 80 3f
       0.00035565588 0.99999994 0.00026670416 1.0
000300 c3 81 10 3e 26 70 7d bf de 3c 47 3f ce bf 20 bf
       0.14112 -0.9899925 0.7782725 -0.6279267
000310 d7 45 7e 3f ab 7f ed bd 63 21 74 3f 63 18 9a 3e
       0.9932532 -0.11596616 0.95363444 0.3009673
000320 c2 09 50 3f 58 2f 15 3f b7 24 27 3f a2 e7 41 3f
       0.8126489 0.58275366 0.652904 0.7574407
000330 6c 2f 02 3f 29 6d 5c 3f a7 68 c7 3e 37 c9 6b 3f
       0.5085361 0.86104065 0.3894703 0.92103904
000340 6c 4e 97 3e ef 90 74 3f e2 6d 64 3e 92 8c 79 3f
       0.2955202 0.9553365 0.22307542 0.9748012
000350 d7 ee 2b 3e 9e 5d 7c 3f 2c 33 01 3e 43 f4 7d 3f
       0.16790329 0.9858035 0.12617177 0.9920084
000360 c0 ff c1 3d 4f d9 7e 3f 06 93 91 3d 3a 5a 7f 3f
       0.094726086 0.99550337 0.071081206 0.9974705
000370 4e 69 5a 3d c3 a2 7f 3f c5 d1 23 3d 90 cb 7f 3f
       0.053323083 0.9985773 0.039994974 0.99919987
000380 1f b9 f5 3c 83 e2 7f 3f 47 47 b8 3c 6b ef 7f 3f
       0.0299955 0.99955004 0.022494925 0.999747
000390 c6 31 8a 3c ad f6 7f 3f 46 44 4f 3c c1 fa 7f 3f
       0.016869437 0.9998577 0.012650555 0.99991995
0003a0 0d 6e 1b 3c 0d fd 7f 3f 13 1d e9 3b 58 fe 7f 3f
       0.009486687 0.999955 0.0071140616 0.9999747
0003b0 a8 cf ae 3b 11 ff 7f 3f 13 17 83 3b 7a ff 7f 3f
       0.005334813 0.99998575 0.0040005534 0.999992
0003c0 92 9b 44 3b b5 ff 7f 3f 60 6f 13 3b d6 ff 7f 3f
       0.0029999954 0.9999955 0.0022496805 0.9999975
0003d0 17 1f dd 3a e8 ff 7f 3f 56 d1 a5 3a f3 ff 7f 3f
       0.0016870227 0.99999857 0.0012650888 0.9999992
0003e0 10 b1 78 3a f9 ff 7f 3f 09 7e 3a 3a fc ff 7f 3f
       0.00094868336 0.9999996 0.00071141176 0.99999976
0003f0 7e d9 0b 3a fe ff 7f 3f a4 be d1 39 ff ff 7f 3f
       0.0005334838 0.9999999 0.00040005625 0.99999994

encoder.layers.0.self_attn.in_proj_weight f4 [192, 64]
000000 e2 e4 64 bd b2 19 6f 3d ff f1 18 be 04 75 b9 3d
       -0.055882342 0.058374114 -0.14936064 0.09055522
000010 51 2d 16 3e 95 d9 d6 bd 0d 43 09 be 49 54 7d 3d
       0.14665724 -0.10490719 -0.13404484 0.06184796
000020 a1 80 7c 3c f6 1b ff 3d 0b 6c 12 be fc 8f d7 3d
       0.015411527 0.12456505 -0.14299028 0.1052551
000030 a0 52 c0 bd 94 02 b2 3b 3d c5 0a bc 35 8c d0 bc
       -0.093907595 0.0054324362 -0.008469877 -0.02545748
000040 63 9e c0 3d 0d 0d 87 3d 36 77 e9 3b 22 69 00 be
       0.0940521 0.06594286 0.0071248068 -0.12540105
000050 e6 2c 09 3d f8 12 f8 3d 4b 4c 93 3c 42 a2 ce bd
       0.033490084 0.12112993 0.017980715 -0.10089542
000060 15 fc 05 3e 6f 71 02 3e 9d 16 a6 3d 53 4e 23 3d
       0.13084443 0.12738584 0.08109782 0.039869618
000070 eb a6 c5 3c 48 cd 4e bc c2 e0 9b bd 71 f0 a2 3d
       0.024127444 -0.012622185 -0.076112285 0.07956017
000080 5a 7f 82 bd d9 e5 a6 bd 18 f6 79 3d 3b 2c 00 3e
       -0.06371947 -0.08149309 0.06102571 0.12516873
000090 4e 71 b9 3d a4 8d 99 bd 26 62 0b 3d 17 70 7b bb
       0.09054814 -0.07497719 0.03402915 -0.0038366371
0000a0 7c a4 24 3d 9e 22 4d bd 19 a9 ae bc 4a 3d 3c 3d
       0.040195927 -0.05008184 -0.021320866 0.045956887
0000b0 cc 4b b2 3d be 2a 01 3e ad 3f 1b be 37 47 33 3d
       0.08705863 0.12613961 -0.15161009 0.043769088
0000c0 44 74 73 bd 71 34 3e bd 49 3b d4 3d 60 3e 00 be
       -0.05943705 -0.04643673 0.1036287 -0.12523794
0000d0 27 cd 57 3c ea ab f3 bc 17 a5 a0 bd 72 43 06 bd
       0.013171471 -0.029745061 -0.078439884 -0.032779165
0000e0 75 35 1b 3d 6d 5b 0d 3e 61 5f 72 3c 59 e0 c6 bd
       0.037892777 0.13804407 0.014793248 -0.0971076
0000f0 17 50 2c 3d c6 75 dd bd 59 44 4d bd bf fb ed 3d
       0.042068567 -0.10813479 -0.05011401 0.116202824
000100 9c 4f 19 be 24 fe 02 3e 9e 93 cb 3c 45 53 c6 3d
       -0.14971775 0.1279226 0.024850663 0.09683851
000110 23 bb 80 3d 95 44 7e bc d6 6a fb 3d 96 d4 b0 bc
       0.062856935 -0.015519281 0.12276237 -0.021585744
000120 45 8a ce bb e0 38 f5 bd 20 7a 3e bb 02 03 3f bd
       -0.006303104 -0.11973739 -0.0029064491 -0.046633728
000130 61 0c b8 bd 15 87 a3 bd b6 fe 94 bd b3 20 fa bc
       -0.08986736 -0.07984749 -0.07275145 -0.03053317
000140 c1 45 bf 3d d2 db 10 3e 4b 17 c7 bd 3b bf 7e 3c
       0.093394764 0.14146355 -0.0972124 0.015548523
000150 ef 51 97 bd e2 39 18 3d be c5 6e 3d de c9 47 bd
       -0.073886745 0.037164576 0.05829405 -0.0487765
000160 17 c4 27 bb ea c9 64 3d 3b f5 b2 bc b3 61 5d bd
       -0.0025599056 0.055856623 -0.02184545 -0.05404825
000170 f7 9c 8f 3c c6 86 e6 3d 09 5e cb 3c 4d 68 12 be
       0.017530901 0.11256175 0.024825113 -0.142976
000180 7f d9 a6 3d b2 ac da 3c ea 5f 0f 3d ee 87 a7 3c
       0.08146953 0.026693676 0.03500358 0.020450559
000190 ce 5b b6 3c 89 0c 65 3d 8d 4c a2 bd a3 cd 95 3d
       0.022260573 0.055920158 -0.07924757 0.07314613
0001a0 39 f0 58 bd 1c 87 80 bc 68 99 b2 bb 17 34 f5 bd
       -0.05296347 -0.015689425 -0.0054504164 -0.11972826
0001b0 e4 90 d5 bd 38 65 d3 3d 71 26 10 3e 3e 6d 93 3d
       -0.10428026 0.1032204 0.14077164 0.07198571
0001c0 b4 92 14 bd 92 57 0d be d5 7e dd bd ca 76 b6 3d
       -0.03627272 -0.13802937 -0.10815207 0.08909376
0001d0 73 f4 49 3a 25 1c 94 3d 52 e6 02 3e 69 b5 db bd
       0.0007703967 0.07231931 0.12783173 -0.107279606
0001e0 cc 71 1b be 28 d7 47 3d 3a a3 f1 bd 2d e8 a1 3d
       -0.15180129 0.048789173 -0.11798711 0.07905612
0001f0 a0 25 e3 bd 8e f9 5f bd 85 b8 2d bd 0a 16 b2 3d
       -0.11091161 -0.054681353 -0.0424123 0.0869561
000200 71 83 f7 bd 5d 2b 28 bb f4 ef fb bc 6b fd 8e 3b
       -0.12085617 -0.0025660612 -0.030754067 0.004363706
000210 13 5d 26 3d ba d3 16 be 4d a1 26 3b 82 c9 7f bc
       0.040616106 -0.14729205 0.0025425733 -0.015612008
000220 df 5b 0f 3e 8e 67 16 be d8 b8 19 be 6b 6a d9 bd
       0.1399989 -0.1468794 -0.15011919 -0.10616001
000230 33 fd 82 3d f5 be b3 3d e1 10 09 3e a1 d2 15 be
       0.0639595 0.087766565 0.13385345 -0.1463113
000240 6d 00 ad 3d 1a 31 1b be 27 d9 bc bd ef 0a b2 3d
       0.08447347 -0.1515545 -0.09221106 0.08693492
000250 af b8 81 bd 18 08 97 bc e8 af 6c 3d 62 7c 0d 3e
       -0.06334054 -0.018436477 0.057784945 0.1381698
000260 8e 30 cc 3d e6 4d 06 3e 3b 1a ba bd ac 14 96 3d
       0.099701986 0.13115653 -0.09087034 0.073281616
000270 00 11 12 be 23 b0 02 3e 15 da 83 bd 9e 84 e1 3d
       -0.14264297 0.12762503 -0.0643808 0.11011623
000280 a0 41 27 3d 7c fa 60 bd 3f 7e 0a 3e d8 c5 a7 bc
       0.04083407 -0.05492638 0.13524722 -0.020480081
000290 60 40 db 3d 2c e5 ae bd bc 3a 80 bd a0 1e 2c bc
       0.10705638 -0.08539805 -0.06261203 -0.010505348
0002a0 fe 1b af 3d 3d cb 89 3d cc c6 32 3d 52 ba 01 be
       0.08550261 0.06728218 0.04364662 -0.12668732
0002b0 e6 3e 17 3e 4d d5 23 3d 4e c0 ef 3d 59 13 09 be
       0.14770088 0.03999834 0.11706601 -0.13386287
0002c0 a6 2b d6 3d 81 d1 d2 bd 7a f0 a4 3d 03 85 82 bc
       0.10457544 -0.10293866 0.0805368 -0.015932566
0002d0 73 89 a3 bc 15 89 c9 3d ae 76 1b 3e 95 a1 aa bd
       -0.019963002 0.098405994 0.15181991 -0.083316006
0002e0 97 cd b1 bd c4 91 04 3e 79 94 a5 3d f5 f8 9f bb
       -0.08681791 0.1294623 0.080849595 -0.004881973
0002f0 ee 6e 82 3d ba 85 bc bd 71 be e1 3d 77 ae 9a 3d
       0.063688144 -0.09205194 0.11022652 0.07552808
000300 a0 b5 f0 bd 0b cb 4f 3c 30 d7 ec bd 67 df 94 bd
       -0.11753392 0.012682687 -0.11564481 -0.07269173
000310 5a f6 21 bc 53 98 5a 3c d2 ec ce bd 32 96 fe bc
       -0.009885395 0.013341981 -0.10103764 -0.031077478
000320 00 52 13 be 0e dc 17 3d 8e b7 7e bd f3 39 d9 3d
       -0.1438675 0.037075095 -0.06218677 0.10606756
000330 e2 76 79 bd ef e1 d3 3b 98 ed aa bc fb 01 82 3d
       -0.06090439 0.0064661424 -0.020865247 0.06348034
000340 16 d8 1d 3b 07 7d 73 3b db 7f 07 3b 57 c2 f8 bd
       0.0024085096 0.003715338 0.0020675573 -0.121464424
000350 35 ef 22 bc 2c 9a 88 bd 44 2c 70 3d 81 81 32 bd
       -0.009944727 -0.06670031 0.058635965 -0.043580536
000360 ed 1e 0b be b0 67 39 bd ed c1 89 bd 58 b5 37 3d
       -0.13586016 -0.0452649 -0.067264415 0.044850677
000370 c0 5b 55 3d 90 a1 ae 3d 11 c4 f0 bc a5 c1 a0 bc
       0.052089453 0.08526909 -0.029390367 -0.019623587
000380 81 a6 49 bc 87 63 8c bb ce 27 75 3b e6 a8 48 bd
       -0.012307764 -0.0042843255 0.0037407759 -0.0489892
000390 fe 6a e4 bd 84 75 c3 3d ce 50 cb 3d 88 a0 a2 3d
       -0.1115322 0.09543899 0.09927522 0.07940775
0003a0 f4 8c db bd e3 dd 21 3c ef 7e 0e 3e f9 02 8b bd
       -0.10720244 0.009879562 0.13915609 -0.06787676
0003b0 ce 91 4d bd fb 2e 0c 3e 80 40 b1 3d 29 fa 88 3b
       -0.05018788 0.13689797 0.086548805 0.004180212
0003c0 88 3a c3 bd 28 4b 07 3e 27 1e a8 3b c9 fd 6d bd
       -0.09532648 0.13212264 0.0051305476 -0.058103357
0003d0 bc 72 a6 3d 0c 2f ee bd 3f fd d9 3d 22 b1 18 bc
       0.081273526 -0.11630067 0.10644006 -0.0093195755
0003e0 98 87 97 bd fb a8 02 3e c1 ab f4 bd 13 77 c7 bd
       -0.07398909 0.12759773 -0.11946822 -0.097395085
0003f0 0f 5b 96 ba 4d ac 5f bd de b1 bf bd e9 af 85 bd
       -0.0011471229 -0.05460768 -0.09360097 -0.06527693

encoder.layers.0.self_attn.in_proj_bias f4 [192]
000000 1a 3f c3 ba 36 b2 0d 3b d2 60 73 3a 25 8f 0f bb
       -0.0014896125 0.0021621115 0.00092841417 -0.002190539
000010 62 07 2b b9 78 01 07 bb 15 cd fa 3a cc fb 7d 3a
       -0.00016310581 -0.002060024 0.0019134606 0.0009688705
000020 ea 87 2c 3a 77 fc bd 3a 32 d7 c2 3a c2 c8 97 3a
       0.0006581532 0.0014494796 0.0014865159 0.0011580216
000030 e3 87 05 bb 9a 40 e6 3a f6 df df 3a 86 46 e5 ba
       -0.0020375184 0.001756686 0.0017080295 -0.0017492331
000040 8f 76 04 bb 84 53 fa 3a 58 8e 24 b9 2c 3f 35 3a
       -0.0020212268 0.0019098376 -0.00015693286 0.00069140154
000050 8c c8 fa ba d1 6b f6 3a b4 10 f3 ba f0 69 f4 ba
       -0.0019133254 0.0018800442 -0.0018544407 -0.0018647294
000060 5b 2b f6 3a 3f 09 53 ba c2 a3 04 3b 06 cb 00 3b
       0.0018781231 -0.0008050389 0.0020239209 0.0019652261
000070 51 86 fe ba 84 0b 03 bb 3c c1 00 3b a8 47 fc ba
       -0.0019418692 -0.0019995878 0.0019646427 -0.001924743
000080 6e 3c 14 3a 82 b0 20 3a 60 63 f0 ba 47 bd ec ba
       0.00056547567 0.00061298173 -0.0018340163 -0.001806178
000090 71 a9 b8 3a b8 80 b9 3a e9 c6 07 3b 2f 20 02 3b
       0.0014088583 0.0014152741 0.0020717925 0.0019855609
0000a0 56 5d d0 39 12 03 06 3b e7 44 32 ba 7f e0 b8 ba
       0.00039742392 0.0020448607 -0.00068004284 -0.0014104991
0000b0 68 1f 04 3b c4 e6 9f ba 7e b3 49 38 db 15 be 3a
       0.002016032 -0.0012199511 4.80893e-05 0.0014502363
0000c0 ab 09 09 bb 3f df f5 ba 36 f7 fd ba ea d6 f4 3a
       -0.0020910304 -0.0018758549 -0.0019376043 0.0018679772
0000d0 c7 c9 fb ba bf ac fd ba fc b0 fe ba f9 e2 00 3b
       -0.0019209915 -0.001935385 -0.0019431408 0.0019666536
0000e0 fa a6 02 3b b9 aa 16 3a 00 db 02 bb 5a 4c f9 3a
       0.0019935952 0.00057474856 -0.001996696 0.0019019947
0000f0 0b f6 a5 3a 1f 83 fb ba 60 1b 0c 3b c1 7d 00 bb
       0.0012661827 -0.0019188857 0.0021378621 -0.0019606205
000100 89 2d 33 b7 5d a4 d6 37 bc 50 60 b7 fb 2b 6f 35
       -1.0679833e-05 2.5587326e-05 -1.3370238e-05 8.909844e-07
000110 7c b8 94 37 1d d4 b5 37 18 76 89 b6 9a 0e f6 b5
       1.7728882e-05 2.1675654e-05 -4.096666e-06 -1.8332678e-06
000120 6c a0 f7 b7 3a 07 92 36 f6 c5 31 37 94 89 a2 b5
       -2.9519397e-05 4.3519804e-06 1.05961135e-05 -1.2109981e-06
000130 23 98 8f 35 99 e0 53 36 7e 68 34 38 ef 8f 4e 37
       1.0698608e-06 3.1572183e-06 4.301266e-05 1.2312069e-05
000140 60 f0 a7 b7 fd c4 4b 38 ff 9b 57 38 e2 19 8e 38
       -2.0019885e-05 4.858243e-05 5.1405277e-05 6.775909e-05
000150 d6 c0 ea b8 e7 ea 1b b8 9b 81 d9 b5 63 1a 84 37
       -0.00011193908 -3.717365e-05 -1.620548e-06 1.5747913e-05
000160 3b 99 07 b6 29 f5 a0 b7 c8 e1 d7 b6 5e 91 16 38
       -2.020576e-06 -1.9187648e-05 -6.4337837e-06 3.589817e-05
000170 e8 af 15 37 6d 0f 25 b7 70 66 00 38 09 a3 17 38
       8.922048e-06 -9.838358e-06 3.061298e-05 3.6153044e-05
000180 a9 46 3d b7 9a b6 1c b8 df fc a0 b7 ba 13 e7 b7
       -1.128173e-05 -3.736336e-05 -1.9191239e-05 -2.7546532e-05
000190 4e 36 a8 b8 15 d5 18 b7 f5 60 a6 b7 92 99 71 b8
       -8.020979e-05 -9.109518e-06 -1.9833891e-05 -5.76019e-05
0001a0 a6 63 32 36 56 db a2 b8 f0 a0 2b 39 ac 66 1a 38
       2.658207e-06 -7.7656165e-05 0.00016367785 3.681208e-05
0001b0 fd 40 38 36 50 f0 73 b4 7b d6 9a b7 06 77 3c b7
       2.7455965e-06 -2.2718564e-07 -1.8458106e-05 -1.12333855e-05
0001c0 ad 73 9e 36 cf c1 81 37 97 14 c6 37 16 90 04 b6
       4.7222334e-06 1.5468248e-05 2.3613027e-05 -1.9753402e-06
0001d0 9a 6d 83 37 e8 8d bf b7 63 25 16 38 54 c1 c2 b7
       1.5667454e-05 -2.2835055e-05 3.5797606e-05 -2.3216628e-05
0001e0 b7 29 01 38 6e 06 ba b6 74 ab 5e b8 77 ce c7 38
       3.0794847e-05 -5.5439805e-06 -5.3088603e-05 9.5275165e-05
0001f0 5b 56 a9 37 4c ed f8 b7 3d 6b 17 37 41 0d 3e 38
       2.0186582e-05 -2.9674404e-05 9.02527e-06 4.5311874e-05
000200 19 8a f1 ba ee 51 d7 ba 8e d1 15 3b 58 cd e4 3a
       -0.0018427997 -0.0016427615 0.00228605 0.0017456217
000210 1e cc 86 ba 76 9d 01 3b fa 68 06 3b a0 74 ce ba
       -0.001028422 0.0019777692 0.0020509348 -0.001575131
000220 92 cf 03 bb d0 bb f8 3a 5d 27 f8 3a 04 c1 f1 ba
       -0.0020112735 0.0018976871 0.001893263 -0.0018444364
000230 cc 77 13 ba d5 64 02 3b 37 90 03 3b be 2e d5 ba
       -0.0005625456 0.0019896526 0.0020074972 -0.0016264541
000240 81 9c 09 3b 33 76 00 3b 81 28 ff ba 87 a7 0a 3b
       0.0020997825 0.0019601702 -0.0019467027 0.0021156983
000250 d5 c6 c5 3a 89 aa f7 3a b5 92 0a bb e2 02 17 ba
       0.0015089164 0.0018895428 -0.0021144573 -0.00057606224
000260 ca e0 98 3a 66 29 09 bb ea ee df 3a 5a 26 b5 3a
       0.0011663672 -0.0020929216 0.0017084752 0.0013820634
000270 2e 93 da ba bf 5f d1 ba 6f e7 e8 3a b1 60 f5 ba
       -0.0016675943 -0.0015973969 0.0017769168 -0.0018720833
000280 8b 1d 00 3b d4 d0 04 bb fc 38 ea ba b8 04 fd 3a
       0.001954886 -0.0020266073 -0.0017869766 0.0019303774
000290 62 39 03 bb 00 6f e8 3a 47 8a e2 ba e6 e9 14 bb
       -0.0020023216 0.0017733276 -0.0017283642 -0.0022722422
0002a0 c7 84 05 3b b2 0d df ba 1c e3 04 3b 49 17 09 bb
       0.002037333 -0.0017017631 0.002027697 -0.002091842
0002b0 fe 7e 08 bb 42 fb f2 ba 5a bd 0e bb 91 8f 0c bb
       -0.0020827646 -0.0018538015 -0.0021780343 -0.0021447877
0002c0 b8 3e e0 ba a8 d9 41 3a 12 3e e2 ba 35 41 06 3b
       -0.0017108535 0.0007394799 -0.001726093 0.0020485644
0002d0 5f 13 e2 3a fe a6 09 3b d5 84 ee 3a 8d 28 f5 3a
       0.0017248205 0.0021004076 0.0018197546 0.0018704102
0002e0 e8 41 0f bb c4 cd ee ba 55 91 de 3a b1 9e d4 ba
       -0.0021859352 -0.0018219282 0.0016980568 -0.001622161
0002f0 4d 8d de 3a df 7b fa 3a ee 99 0f 3b dd ea 00 3b
       0.0016979367 0.0019110403 0.0021911818 0.001967124

encoder.layers.0.self_attn.out_proj.weight f4 [64, 64]
000000 e6 27 00 bd b7 87 d9 bc c3 4d 81 bd 40 23 0c 3d
       -0.03128805 -0.026553972 -0.0631366 0.034213305
000010 ce b7 c4 3c 5e 10 45 bd 6e c6 fe 3d 46 5f eb 3d
       0.024013426 -0.048111312 0.12440191 0.11492781
000020 87 a6 23 ba 60 aa bc bd 73 51 b1 bd 41 68 ab bc
       -0.0006242771 -0.09212184 -0.08658113 -0.020923736
000030 8b a5 cd 3d fe 61 8c 3d bf 85 c2 bd d1 b2 91 bd
       0.100413404 0.06854628 -0.09498166 -0.07114185
000040 5d 25 fe 3c fd cd a7 bd 7f 20 5d 3d ac a6 38 bd
       0.031023676 -0.08193586 0.05398607 -0.045080826
000050 bc 80 75 3d 54 32 34 3d 38 b6 e1 bd a8 97 72 3d
       0.059937224 0.04399331 -0.110210836 0.059226662
000060 69 72 01 3e 31 7c d1 3d 18 1f d6 3d e1 03 08 3d
       0.126413 0.10228766 0.104551494 0.033206824
000070 59 94 a0 3d 0b 08 dc bd f9 12 f4 bd fe f0 ab bc
       0.07840795 -0.107437216 -0.11917681 -0.020988937
000080 d4 0a d2 bd 87 d8 85 3d 53 f4 bb bc 68 95 99 bd
       -0.102559716 0.0653544 -0.022943651 -0.074992
000090 2c b6 8f bd b1 90 d4 bc 52 da 1a bd 8f 88 58 bd
       -0.070171684 -0.0259479 -0.037805863 -0.052864607
0000a0 35 5d 59 bd 57 72 d9 bc 02 ea 8e bd b9 24 99 bc
       -0.053067405 -0.02654378 -0.06978227 -0.018694269
0000b0 7b 62 ba bd 82 ba 7a bd 2f 79 01 3e 4f 51 dd 3d
       -0.09100815 -0.061213024 0.12643884 0.10806524
0000c0 9b 36 64 bd ce c4 b3 bd 9b d9 73 bb cc 3b 94 bd
       -0.05571614 -0.08777772 -0.003720856 -0.07237968
0000d0 87 b1 88 3d 01 76 27 3c 70 54 8a bd 76 05 96 3d
       0.06674486 0.010221005 -0.067543864 0.0732526
0000e0 50 1f fe 3d 0e c7 e4 bd f1 ac dc 3d 00 92 f5 bc
       0.12408316 -0.11170779 0.107751735 -0.029976845
0000f0 27 7b ee bd 53 87 98 3d 13 4b 5e 3d 02 16 ef 3d
       -0.11644583 0.07447686 0.054270815 0.116741195
000100 58 34 21 3d 7e 16 15 bd 86 97 c9 3d 5e c9 36 bd
       0.03935656 -0.036398403 0.09843354 -0.044625632
000110 26 09 80 bd c8 76 a7 3a c7 ec aa 3d 61 f8 35 3d
       -0.06251745 0.0012776488 0.08345943 0.044426326
000120 23 50 98 bd 4b bc ea bd e2 ad e1 bd 96 94 74 3d
       -0.0743716 -0.11461695 -0.11019494 0.059712015
000130 f6 71 83 bd 24 65 97 bd 9d bd 74 3d 6d 81 9c 3d
       -0.06418221 -0.07392338 0.05975114 0.076418735
000140 b4 fb 4c 3d c4 a7 db 3d 8c d0 65 bc 3e 1a 9f 3d
       0.05004473 0.10725358 -0.014026772 0.07768677
000150 6f 52 dc 3d 73 1d bf bd 35 80 93 bc 1a 68 d0 3c
       0.107579105 -0.09331789 -0.01800547 0.025440264
000160 6a 37 f8 bc e4 91 ce 3d b7 4b da 3d 09 76 a6 bd
       -0.030299861 0.1008642 0.10658973 -0.08127982
000170 52 bf 25 bd 92 91 c2 3d d6 93 c8 3d bf 4d 82 bb
       -0.04046566 0.095004216 0.097938225 -0.003976553
000180 64 6c f9 3d 41 00 7f 3d a7 45 56 3d cc 1f a4 3b
       0.12178877 0.0622561 0.05231252 0.0050086733
000190 ca e0 f0 bd ad 51 c0 3d 40 87 f9 3d df e3 7e 3d
       -0.11761625 0.093905784 0.12184 0.062229034
0001a0 60 9d 23 bd f1 e4 55 bd e2 d3 8e 3c 6e f1 a1 3d
       -0.039945006 -0.05222029 0.017435018 0.07907377
0001b0 96 50 e8 3c 96 6c 8d 3d 19 da 39 bc 41 4d f6 3c
       0.028358739 0.06905477 -0.011343502 0.030066134
0001c0 79 9e ba 3c 4e 07 6a bb 53 d6 1a 3c 81 70 fa 3d
       0.022780644 -0.003570992 0.009450513 0.1222849
0001d0 ad 1d b3 3d 14 c6 c9 bd 54 b9 ec bd 60 3e dd bc
       0.087458946 -0.098522335 -0.11558786 -0.027007282
0001e0 1e 41 ca bc 75 37 4e bb 82 b6 36 bd a9 54 98 3d
       -0.024689253 -0.003146616 -0.044607647 0.07438023
0001f0 fe 1c f4 bd 9b 2a a0 bd ec 17 92 3d 0a ef 6c bd
       -0.11919592 -0.07820626 0.07133469 -0.057845153
000200 ed a8 dc bc fb 81 5b 3d 18 e2 12 bd 77 6c ef bd
       -0.026936019 0.053590756 -0.03586015 -0.1169061
000210 62 ba a6 3c a2 64 b3 3d 21 e5 c4 bd 55 68 3c 3b
       0.020352546 0.087594286 -0.09614015 0.002874871
000220 45 0e 79 3d b6 f9 87 3d 85 65 8a 3d ce 79 3d 3c
       0.060804624 0.066394255 0.067576446 0.011564685
000230 72 73 24 bd 55 6c cb bd d6 41 d5 bc 1a 05 18 bc
       -0.04014916 -0.09932772 -0.02603237 -0.00927856
000240 0d e2 8c 3d bc 71 69 bd ff 02 1d 3d 41 fe 06 bd
       0.06879053 -0.05699323 0.038332935 -0.03295732
000250 8e 84 40 bb 85 dd d3 bc e1 58 87 bd 9f 57 3e bb
       -0.0029375884 -0.025862465 -0.06608749 -0.0029043925
000260 e0 b1 f9 3d 14 44 b5 3d ac e5 da 3d f2 54 55 bd
       0.1219213 0.088508755 0.10688338 -0.052082963
000270 63 ca 04 3d 83 9b 98 bd 52 d0 e8 3b e8 a9 4e 3d
       0.032419574 -0.074515365 0.007104912 0.050455004
000280 b4 2b 87 bd 21 11 d2 bd 78 ae 9e 3d 8a a8 e1 bd
       -0.066001326 -0.10257173 0.07748121 -0.110184744
000290 38 97 2d 3d 86 3a ab 3d f4 27 e7 3c b0 b3 e9 3d
       0.04238054 0.08360772 0.028217293 0.11411226
0002a0 de 08 c4 bd 8b fa bb bd 52 e8 65 bd 93 63 ba 3c
       -0.09572004 -0.09178647 -0.05612976 0.022752559
0002b0 19 3f 82 3d eb f1 b1 bd 1c ee d2 3d 8a e8 bd bc
       0.06359691 -0.0868872 0.10299322 -0.023182172
0002c0 fc 36 bc bd 21 25 de 3d de 27 ff bc 28 e5 ee bd
       -0.09190175 0.108469255 -0.03114694 -0.11664802
0002d0 8a 31 d0 3d bc db ab bd 23 f7 e4 3d 6d 46 b3 3d
       0.10165699 -0.083915204 0.1117995 0.08753667
0002e0 ca 4b be 3d 34 70 b9 ba 6f 8f b7 bd 18 7c 47 bc
       0.09291799 -0.0014147819 -0.08962905 -0.012175582
0002f0 50 45 ba bd 0a 78 f1 bd 7d 82 5a 3d 7e 00 7a 3c
       -0.090952516 -0.11790474 0.0533471 0.015258906
000300 2a 9b ba bd 86 c7 60 bc 3d 65 ec 3d de b3 c2 3d
       -0.091116264 -0.013719445 0.11542747 0.09506963
000310 b6 4d d3 3d 02 0d 90 3d 1f 0a 81 3d b1 5a c9 bd
       0.103175566 0.07033731 0.063007586 -0.09831751
000320 37 70 f0 3d 56 b3 73 bd ac a8 39 3d 64 29 86 bd
       0.11740153 -0.0594972 0.045326874 -0.065508634
000330 ef cd 0f bd b7 0a 79 bc f3 b0 b0 3c 2e 65 a9 bd
       -0.035108503 -0.0152003085 0.021568751 -0.082712516
000340 c9 ee cc bd df 6a 34 3d 63 9c 28 bd 9e 7b f6 bd
       -0.10006482 0.044047233 -0.041164767 -0.12035297
000350 a8 50 8f 3d a9 fa 9e bc 67 3c bd bd 17 e7 35 bd
       0.06997806 -0.019406633 -0.092400365 -0.044409838
000360 8a e3 3b bd f3 16 2b 3d 36 e2 ce 3c be 44 79 3d
       -0.045871295 0.041769933 0.02525435 0.060856573
000370 73 15 e0 3d 30 c4 25 3c d3 a5 57 3d 00 b3 c2 bc
       0.10941591 0.0101175755 0.052648377 -0.023766994
000380 2e 31 99 bd 44 8c 8e bd 0d cd a9 3d f7 c1 d1 3d
       -0.074800834 -0.06960347 0.082910635 0.10242074
000390 11 53 a2 3d de 5d f4 bd 05 93 46 3d 7c b1 86 3d
       0.07926 -0.11931966 0.048480053 0.06576821
0003a0 2e 25 c0 bd f3 95 ed bc fa 60 81 bd 0b bb db bb
       -0.093820915 -0.029002165 -0.06317325 -0.006705647
0003b0 ef 89 8c 3d 52 d1 b0 3d fe 67 b6 bd a8 a9 01 be
       0.06862246 0.08633675 -0.08906554 -0.12662375
0003c0 7f e6 de bb 8f 22 e1 bd 44 18 5c bd 64 e3 8f bb
       -0.0068023796 -0.1099292 -0.05373408 -0.0043911207
0003d0 d6 f6 dd 3a 8d 46 d7 3c c1 12 0a bd 6f 57 d0 3c
       0.0016934525 0.026278758 -0.03370929 0.025432317
0003e0 80 46 b5 bd 89 ae a9 bd d8 4d fc 3d d3 23 3f 3c
       -0.088513374 -0.08285243 0.12319535 0.011666256
0003f0 b4 a0 9a bc 4d f3 c7 3d 0b 65 d5 bc d0 74 ce bd
       -0.018875457 0.09763203 -0.026049158 -0.10080874

encoder.layers.0.self_attn.out_proj.bias f4 [64]
000000 86 f7 c0 3a 07 09 dd ba 22 3c a3 ba bd 8e d1 3a
       0.0014722205 -0.0016863652 -0.0012453834 0.0015987974
000010 2e e2 ec ba 0c 8a b8 ba 10 69 03 3b 86 0d cf 3a
       -0.0018072778 -0.0014079227 0.0020051636 0.0015796877
000020 37 1c 00 bb 68 14 04 bb 39 2e 7d ba 70 b3 09 bb
       -0.0019548067 -0.0020153765 -0.0009658072 -0.0021011494
000030 b4 83 00 bb 37 0b 06 3b fd af f5 3a 34 8f 57 b9
       -0.0019609751 0.0020453462 0.0018744465 -0.00020557345
000040 c4 af fb ba 9c 41 a2 b9 55 d5 fd 3a 4d b5 48 3a
       -0.0019202163 -0.0003094793 0.0019365946 0.00076564105
000050 bd 96 dd 3a bc 92 0f 3b 28 6e 0f bb b6 86 b2 ba
       0.0016905885 0.002190753 -0.0021885727 -0.0013620469
000060 00 29 08 3b 3b 23 bc ba 22 79 09 bb 3b 33 de ba
       0.002077639 -0.0014353761 -0.0020976742 -0.0016952524
000070 73 cb 0e 3b d7 db f0 3a 84 36 01 bb 3f 81 0f 3b
       0.0021788746 0.0018376064 -0.0019716332 0.0021897105
000080 a2 ed 37 ba 5e e3 02 3b c0 9c ee 3a a0 6c f2 3a
       -0.0007016306 0.0019971947 0.0018204674 0.0018495508
000090 bd 79 b4 3a 85 81 0e bb 7c 4a 03 3b 00 ab f3 3a
       0.0013769191 -0.002174468 0.002003341 0.0018590391
0000a0 52 de 28 ba 35 e6 04 bb 4e 72 14 3b a8 78 94 3a
       -0.000644182 -0.0020278816 0.0022651139 0.0011327462
0000b0 76 8e c6 ba bc 0e 13 bb 10 52 03 bb 09 92 fc 3a
       -0.0015148658 -0.0022439202 -0.0020037927 0.0019269596
0000c0 47 f1 b3 3a c8 b1 de 3a 04 d3 b8 3a 1f f7 df ba
       0.0013728522 0.0016990239 0.0014100973 -0.0017087198
0000d0 57 69 0b 3b 58 08 02 bb ea 5c f0 ba db 51 ea ba
       0.0021272504 -0.00198414 -0.0018338237 -0.0017877178
0000e0 41 f5 f5 3a f6 21 09 bb b4 f9 0c 3b 53 af 88 3a
       0.0018765108 -0.0020924783 0.002151114 0.0010428227
0000f0 a6 7a 44 b9 14 7c f3 ba 3d 35 fc ba 39 ff 61 3a
       -0.00018737707 -0.0018576407 -0.001924194 0.00086211

encoder.layers.0.linear1.weight f4 [256, 64]
000000 94 8a c0 3d d9 62 f4 3b 8f e9 ef bd 1d 56 2a 3c
       0.09401432 0.0074580726 -0.1171447 0.010396508
000010 82 59 a2 bd 95 75 45 3d 93 f2 c5 3d ff 76 7d bd
       -0.079272285 0.048207838 0.09665408 -0.06188106
000020 2f 96 f5 3d e4 12 73 bd 59 cb 87 bd da 19 05 3c
       0.11991536 -0.059344187 -0.06630582 0.008123839
000030 8e a1 bf bd ec c2 46 3c a1 fb 4c 3d 84 30 33 bd
       -0.09356986 0.012131434 0.05004466 -0.04374744
000040 21 90 b9 3d f0 ea a7 bd b0 8c cc bd 95 6d 9a 3d
       0.090606935 -0.08199108 -0.099877715 0.07540432
000050 ba d7 72 3c e4 16 d7 3d 36 68 db 3d b4 54 79 bd
       0.014821941 0.10502413 0.10713236 -0.060871795
000060 b9 3a b1 bd 00 c2 e3 bd 78 9b c0 bd 6b a3 90 3d
       -0.086537786 -0.11120987 -0.09404653 0.070624195
000070 18 9e d7 bd d9 5b be 3d ed 17 de 3d d0 ce e9 bc
       -0.10528201 0.09294862 0.10844407 -0.028540999
000080 b8 93 21 3d ae c5 0d 3d 30 02 d1 3d 32 36 8e bd
       0.039447516 0.03461235 0.10205495 -0.06943931
000090 f0 34 14 3d 4e 9a c3 3d 3a 67 ab 3c 51 b3 fd 3d
       0.036183298 0.09550916 0.020923246 0.123877175
0000a0 40 f5 2b 3d 3e 5c 3a bd bc 01 78 bd 8c 83 7e bd
       0.041981936 -0.045498125 -0.06054853 -0.06213717
0000b0 d3 12 f9 3d 77 84 82 bd 5b 0f db bd 00 0b 90 3d
       0.121617936 -0.06372922 -0.10696288 0.07033348
0000c0 7f d9 9f 3d a7 b8 1c 3d d2 ea 21 bd 1e 28 f6 3a
       0.07805156 0.038262036 -0.039530583 0.0018780266
0000d0 5e ab 5e bd e1 9f 59 bc b0 34 30 39 29 10 ba bd
       -0.054362647 -0.013282747 0.00016804296 -0.090851136
0000e0 05 33 cd bb 7e 57 2a 3d 25 bb 6e bd a9 15 a7 bc
       -0.0062621855 0.041587345 -0.058283944 -0.02039607
0000f0 28 b1 1e 3d 0d c1 53 3d 5e 3a 74 bd 38 03 21 bd
       0.038743168 0.05169778 -0.059625976 -0.03930971
000100 81 bb a1 3d c6 e6 61 bc 39 66 c7 3b a7 93 fa 3d
       0.07897092 -0.013787931 0.006085184 0.12235194
000110 9b 53 00 bd c6 ca 49 3c 38 20 e5 3d 6e 7f 54 bd
       -0.031329732 0.012316411 0.11187786 -0.05187934
000120 98 2b f7 bc 19 9e cd 3d 3f 70 41 bd 65 a1 a7 bc
       -0.030172154 0.1003992 -0.047226187 -0.020462701
000130 df 5b de bd 33 6c 7a 3d 3d e2 e0 bd df ac 9e bb
       -0.10857367 0.061138343 -0.109806515 -0.004842385
000140 b8 13 7d 3d 07 23 01 3e ac 82 e6 3d 40 46 af bc
       0.061786383 0.12611018 0.112553924 -0.021395802
000150 94 61 a9 3b 9a 40 16 3c d8 17 fa 3d ea a3 f2 3d
       0.005169103 0.009170676 0.12211579 0.118476704
000160 23 d5 cb bd 63 fa f4 3d b5 19 e1 3d e8 1f 91 bb
       -0.09952762 0.1196182 0.10991231 -0.0044288523
000170 8c c5 c5 3c 3c 15 e6 3c 75 00 f5 3d 6e 8f b6 bd
       0.02414205 0.028086297 0.11962978 -0.08914076
000180 0e da b8 3d 70 4e b2 bb bd d0 64 bd cc 30 f2 3d
       0.09025966 -0.0054414794 -0.05586313 0.118257135
000190 55 4c 34 bc 1f b6 ee bc 37 cc a5 3d d0 c6 d0 bd
       -0.011004527 -0.029139576 0.080955915 -0.101941705
0001a0 54 85 fb bb 73 a5 d0 3c b8 27 c5 bd 60 45 05 bd
       -0.007675806 0.025469517 -0.096267164 -0.032536864
0001b0 ea fd 1d bd 30 00 b9 3d 01 98 fa 3c 07 e6 a7 3d
       -0.03857223 0.09033239 0.03059006 0.08198171
0001c0 9d a2 6c 3d 51 fc 34 3d ff 32 52 3d 14 9b cc 3a
       0.057772268 0.04418594 0.051318165 0.0015610182
0001d0 b7 82 b6 bd e1 90 e7 bd d6 cc b4 3c 66 fa 78 bd
       -0.08911651 -0.1130693 0.02207033 -0.060785674
0001e0 e7 6c dd 3d 2d 69 b0 bd cb 55 47 3c 08 c3 e0 bc
       0.10811787 -0.08613811 0.012166451 -0.027436748
0001f0 0b 88 96 bc 78 38 8c bd 3a 4a 01 3c 8b 84 b8 bd
       -0.018375417 -0.06846708 0.007891232 -0.090096556
000200 44 9d bc 3d 18 eb c2 bd 7d 90 55 3c a4 5f 03 3d
       0.092096835 -0.09517497 0.013034937 0.032073632
000210 d1 24 a0 3d 1e dc 71 3d 66 c1 b7 3d c0 9b 8c bd
       0.07819522 0.05904781 0.08972435 -0.068656445
000220 c1 22 80 3c c1 cf da 3d fa f5 ea 3b ad 83 dd 3d
       0.015641572 0.10684157 0.007170436 0.10816131
000230 01 db 06 3c 31 9c 5c 3c a1 50 e0 3d a9 55 a5 bd
       0.008230926 0.013464973 0.10952879 -0.08072979
000240 9c 6a 1e 3d 22 9b 72 bd f7 97 dd 3d 95 1e ee bd
       0.03867589 -0.059229977 0.108200006 -0.11626927
000250 5e fc ce bc d1 e3 41 3d e8 ad 63 ba c7 45 0f bd
       -0.025266822 0.047336403 -0.0008685277 -0.034978654
000260 60 99 f4 3d a8 3f be 3d 8d 0f 9b bd ab cc 71 3d
       0.119433165 0.09289485 -0.075713255 0.059033077
000270 22 bf 65 bd f8 b2 fc 3d cb 02 4a 3d 81 11 c1 bd
       -0.05609048 0.12338823 0.04931907 -0.09427167
000280 ac a5 da 3d 4a 44 9f bc 41 cb f7 3d 69 43 b1 3c
       0.10676131 -0.019441742 0.120993145 0.021638589
000290 67 04 a3 3d c0 47 43 3c d8 0a bb bc d3 bd d2 bb
       0.07959824 0.011918962 -0.02283232 -0.00643132
0002a0 08 57 f5 bd 97 d4 1b bd 32 4e fa 3d 0f 59 36 bd
       -0.119794905 -0.03804454 0.12221946 -0.044518527
0002b0 73 38 a4 3d 32 90 cf 3d 40 8d f2 bd f3 2c 54 3d
       0.08018579 0.10134925 -0.118433475 0.05180068
0002c0 65 76 e3 3d 1c 42 9b 3d cc 68 7b 3d 56 fd 35 bd
       0.11106566 0.07580969 0.06137924 -0.044431053
0002d0 2b 46 86 bd e8 fe ba bd be 4e 88 3d 65 e7 db 3c
       -0.06556352 -0.09130651 0.06655644 0.026843736
0002e0 39 f2 8d 3c 5d 6e 24 3d a9 9c a1 bd 37 eb 60 3d
       0.017327415 0.040144313 -0.07891209 0.05491182
0002f0 be fd 8e 3d 7f 92 25 bd 70 11 f2 3d 9c 66 f2 bd
       0.06981991 -0.040422913 0.11819732 -0.118359774
000300 b0 26 b6 3b af e6 b0 bc a0 98 b9 3c 8a fa 63 3b
       0.005558811 -0.021594374 0.022655785 0.0034786784
000310 26 27 8d 3d 21 15 bd bd e8 93 a8 bd f1 b0 b0 3d
       0.068922326 -0.09232546 -0.08231336 0.08627499
000320 b2 2b 9b bc da 76 95 bd c0 8d 75 3d f8 5b 92 bd
       -0.018941734 -0.0729806 0.059949636 -0.07146448
000330 7c 9e 46 bc 24 d9 e9 bd 89 dd ba bd 23 9d 3b 3d
       -0.012122747 -0.114183694 -0.09124286 0.045804154
000340 4b 47 9f 3d cf 66 99 3d e1 42 42 3a 66 af b2 bd
       0.0777727 0.07490312 0.00074104784 -0.08724861
000350 ab f2 01 bd 29 72 53 3c 30 e8 02 3c 25 a8 65 bd
       -0.031725567 0.012905636 0.007989928 -0.05606856
000360 0a f8 95 bd 48 fd 7a 3c cc c0 f8 bd c7 76 80 bd
       -0.073227 0.015319176 -0.12146148 -0.06272655
000370 cb 6d cd bc 6c 8b f3 3c 83 54 e8 bd 11 87 f2 3d
       -0.025076767 0.029729567 -0.11344244 0.11842168
000380 0f 79 d9 bd 92 13 54 bd e9 6b 49 3d 51 89 ab 3d
       -0.10618793 -0.051776476 0.049175177 0.083758004
000390 17 42 d0 bc ac df ca 3d 7d 08 6b 3d 27 6a 13 3d
       -0.02542214 0.09905943 0.057381142 0.035989907
0003a0 7d 27 c0 3d 75 ef a3 bd 16 e2 b1 bd de 43 a2 bd
       0.09382532 -0.08004657 -0.086857006 -0.07923101
0003b0 fd ad 24 3d dc f9 c7 3d 5b 6e b8 bd 05 b3 7b 3d
       0.04020499 0.09764454 -0.09005424 0.061450023
0003c0 d7 34 e8 3d f4 81 3a bd 9b dd c7 bb 83 ce 39 3d
       0.113382034 -0.04553409 -0.0060994155 0.04536296
0003d0 ff a7 00 be 68 fe c7 bd b8 26 5a bd 27 0c 57 bd
       -0.12564085 -0.09765321 -0.05325958 -0.052501824
0003e0 53 49 df bd 80 f3 49 3d 15 52 e1 3d 19 85 ed bd
       -0.10902657 0.049304485 0.11001984 -0.11597652
0003f0 98 12 c1 3d 22 c2 18 3b b8 cf 90 3d ed 0f cb bb
       0.094273746 0.0023309072 0.07070869 -0.006196967
